PositioningWith80211azFingerprintingAndDeepLearningExample/models/6gcnn.pth (torch, 304791 bytes, 5 tensors)

conv1.weight f4 [64, 3, 3, 3]
000000 13 f6 2f 3e ff 38 23 3e 44 b0 89 bd 2e 66 86 3d
       0.17183714 0.15939711 -0.06723073 0.06562458
000010 80 c0 f5 bc 2a 83 be 3d 23 5f 1c 3e db 46 40 3e
       -0.029999018 0.09302361 0.15270667 0.18777029
000020 4d 90 12 3e 7c 33 3b be c0 b5 f0 bb 80 1f 68 3b
       0.14312859 -0.18281358 -0.007345885 0.0035419166
000030 cf d1 02 3e 0f ba 31 be 5e 87 81 3d 80 1f 9a ba
       0.12775348 -0.17356132 0.06324647 -0.0011758655
000040 86 c7 bc 3d 26 93 ee 3d 30 84 2c 3c ae f1 f7 3d
       0.092177436 0.1164916 0.010529563 0.121066436
000050 ea 6c a8 bd f1 bc 2d be 98 20 d8 3c b9 12 99 bd
       -0.08223899 -0.16966607 0.02638273 -0.07474274
000060 eb 76 a4 bd 3a 0a 99 3d 9d 10 34 be c5 33 01 3e
       -0.08030494 0.07472654 -0.17584462 0.12617405
000070 27 61 1e 3e b4 88 cc bd 94 6e c7 bd 20 87 d5 3c
       0.15466748 -0.099870116 -0.09737888 0.02606541
000080 c0 f4 49 bc b8 82 27 bd f5 1b 41 3e 46 97 44 be
       -0.012326419 -0.040896147 0.18858321 -0.19198331
000090 d8 31 21 bd d8 64 bb 3c e5 24 1e 3e b1 40 0d be
       -0.039354175 0.022875234 0.15443762 -0.13794209
0000a0 2a ba 06 be c7 fc 43 3e cb 4b fe bd 3b 4d 04 3e
       -0.13156953 0.19139396 -0.124168 0.12920086
0000b0 90 27 12 be 08 a5 b9 bd 4b 76 eb bd 40 69 44 3d
       -0.14272904 -0.0906468 -0.11497172 0.047951937
0000c0 00 b8 21 ba 06 e0 81 3d 91 0c bb bd 40 26 c1 bd
       -0.0006169081 0.06341557 -0.09133256 -0.09431124
0000d0 f0 0e 35 3d 70 2c b0 3c 60 27 83 3b 87 d6 0b 3e
       0.0442037 0.021505564 0.0040024966 0.13656054
0000e0 c0 a2 e0 bb 43 45 ce bd 51 7f 02 3e 99 23 90 bd
       -0.006855339 -0.100718044 0.1274388 -0.0703804
0000f0 b6 6d 17 be 17 d9 31 be 40 0f 80 bc 61 bf 20 3e
       -0.14787945 -0.1736797 -0.015632272 0.15698005
000100 66 fb cd bd bc 91 5a bd 9c f7 0e bd 20 f6 c3 bc
       -0.10057716 -0.05336164 -0.034904107 -0.023921072
000110 da 37 82 3d 0d 77 09 be f7 5a 43 be 0f ac bd bd
       0.06358309 -0.1342432 -0.19077669 -0.09261333
000120 a8 e6 08 bd 59 37 12 3e 63 77 24 3e d5 bf 39 be
       -0.033423096 0.14278926 0.16061167 -0.18139584
000130 5a 4c bc 3d 7e 76 a8 3d 0c 74 4c bd de 14 0e be
       0.091942504 0.082257256 -0.04991536 -0.13875148
000140 ce 39 eb 3d 77 8c 30 3e 97 9e 21 3e b7 8c 17 3e
       0.11485635 0.17241083 0.15783153 0.14799772
000150 7d ee 20 3e f8 85 05 bd c9 7c a5 bd 80 6a 4f 3d
       0.15715976 -0.032598466 -0.080804415 0.050638676
000160 70 6a 58 3d 10 8e 6f 3c 10 10 1a bc 42 5e 86 3d
       0.05283588 0.014621273 -0.009403244 0.06560947
000170 e8 d5 3e be 49 9a 1e 3e ea af a0 3d 55 4f cb bd
       -0.18636286 0.15488543 0.07846053 -0.09927241
000180 77 5d 20 be 68 ed fc bc 9c 90 0f bd 90 ff a8 bd
       -0.15660654 -0.030874923 -0.03505002 -0.0825187
000190 94 fc 86 bd 49 d9 b6 bd 70 f3 3c 3c 14 e9 79 bd
       -0.06591144 -0.089281626 0.011532649 -0.061013296
0001a0 f0 99 28 3c e4 eb 39 be 0f 5f fa bd fe 47 b3 3d
       0.010290608 -0.18156391 -0.12225162 0.08753966
0001b0 ee 32 a2 3d 44 ec 7a 3d 10 64 86 3c ba 47 c5 3d
       0.0791987 0.061260477 0.016405135 0.096328214
0001c0 ae a9 9e 3d 00 52 c2 bc a4 b2 87 bd 47 cf 24 3e
       0.077472076 -0.023720741 -0.0662587 0.16094695
0001d0 d0 61 18 3c 5a ae ad 3d 00 eb 14 3c 80 40 65 3c
       0.009300664 0.084805205 0.0090892315 0.013992429
0001e0 8e 3d ae 3d a0 68 7f bc 7c 2a 49 bd c6 e9 b3 3d
       0.085078344 -0.015588909 -0.049112782 0.08784823
0001f0 ba d1 34 be 7d 50 c9 bd 5e 99 a2 bd da 09 b9 3d
       -0.1765813 -0.09829805 -0.07939409 0.09035082
000200 80 2c c9 bd 18 a5 f6 bc f0 13 66 bc 70 49 00 3d
       -0.09822941 -0.03010802 -0.014042839 0.031320035
000210 4c 08 0d be 20 f0 a7 bd 57 74 26 3e 28 72 b6 3c
       -0.13772696 -0.08200097 0.16255318 0.02227123
000220 b0 85 9e bd 40 7a 3f bb e0 5a de bd d8 2f b2 bd
       -0.077403426 -0.0029217154 -0.10857177 -0.08700532
000230 00 ed 4b 3d 92 22 c6 3d 4a 20 b7 3d ce c4 d3 3d
       0.049786568 0.096745625 0.089417055 0.10340272
000240 5a bd 16 be 7a 88 e1 3d e0 3d 2b be e8 67 c5 3c
       -0.1472067 0.11012359 -0.16722822 0.024097398
000250 34 10 8f bd 90 e7 34 be 0a d0 15 be 08 5e a0 bc
       -0.069855124 -0.17666459 -0.14630142 -0.019576088
000260 40 41 f3 3c ae df b3 3d c4 65 3f 3d ae 05 fd 3d
       0.0296942 0.08782898 0.04672791 0.12354599
000270 84 51 3b bd 7e 97 be 3d 83 30 de bd dd 2e 14 3e
       -0.045732036 0.093062386 -0.108490966 0.14471002
000280 00 ae e1 bc cc e7 52 3d 80 21 74 3b 5e 65 da 3d
       -0.02754879 0.05149059 0.0037251413 0.106638655
000290 60 7c b5 bd 96 36 b5 bd 7b c4 28 be 60 3d f2 bb
       -0.08861613 -0.08848302 -0.16481201 -0.0073925704
0002a0 d3 c8 35 3e ff 87 00 3e 24 78 b5 bd 65 87 19 3e
       0.1775239 0.12551878 -0.08860806 0.14993055
0002b0 18 61 81 bc f6 ea d5 3d f0 db 29 bd b6 26 e9 3d
       -0.015793368 0.10445206 -0.041469514 0.11384337
0002c0 8b fa 3f 3e 88 44 e0 bc 12 8c 8d 3d 94 9f 19 be
       0.18747918 -0.027376428 0.06911482 -0.1500228
0002d0 39 9a 2e 3e d8 66 1e bd ca b0 b9 3d 70 fc 46 bd
       0.17051019 -0.0386723 0.09066923 -0.048580587
0002e0 46 2b f0 3d ff 3d d3 bd a7 de 30 3e e2 9b 89 bd
       0.11727004 -0.10314559 0.17272435 -0.067191854
0002f0 c0 78 5d bc 70 18 90 bd f8 0f 97 bd 8a f4 9d 3d
       -0.013517559 -0.07035911 -0.07376093 0.07712658
000300 a0 69 18 be 7b 10 93 bd a1 04 3e be bc 0a 36 3d
       -0.14884043 -0.07180878 -0.18556453 0.04444383
000310 20 20 0c bc d5 b6 c7 bd 60 d6 3b 3c 2c 65 f9 bd
       -0.008552581 -0.09751669 0.011464685 -0.121775
000320 d4 3f 1d be 1e 9d fb bd 24 04 02 3d 6b d6 9a bd
       -0.1535638 -0.12285827 0.03174223 -0.07560428
000330 9b c6 e6 bd 4c 11 78 3d 40 ac 91 bc f3 8f 05 3e
       -0.1126835 0.06056337 -0.01778233 0.13043194
000340 84 3d 36 bd 32 78 f9 3d c2 d7 05 be 56 16 2c be
       -0.04449226 0.121811286 -0.13070586 -0.16805395
000350 fe 99 11 be b8 cf 9e 3c 42 e9 af 3d d1 34 01 3e
       -0.142189 0.019386157 0.08589412 0.12617804
000360 cd c5 1a 3e 1c c5 01 be 4e be 9f 3d 68 0f d9 bc
       0.15114518 -0.12672848 0.077999696 -0.026496604
000370 cf 24 1a 3e 82 f0 1e be de 7a 38 be 84 53 1b 3d
       0.15053104 -0.15521434 -0.1801562 0.037921444
000380 5c e1 37 3d fe 6c a8 3d 62 71 cd 3d 42 03 cd 3d
       0.044892654 0.082239136 0.10031392 0.10010387
000390 91 50 3b 3e ce 10 aa bd 24 69 8a bd 0c 5d 82 bd
       0.18292452 -0.083039865 -0.06758335 -0.063654035
0003a0 0e 2e ad 3d 90 40 28 be 8c 94 1f be 52 b8 c5 3d
       0.0845605 -0.16430879 -0.1558401 0.09654297
0003b0 61 19 17 be 15 c5 29 be 38 c4 d3 bc 1b 46 a0 bd
       -0.14755775 -0.16579087 -0.0258504 -0.078258716
0003c0 60 98 e4 bc f8 6c 52 bd 0a 3e 43 be c0 9e 42 bb
       -0.02790469 -0.051373452 -0.19066635 -0.0029696673
0003d0 e5 b1 dd bd ce 8c 9e 3d 27 17 10 3e b5 8e 21 3e
       -0.10824946 0.077417 0.14071332 0.15777095
0003e0 82 09 ce bd b1 78 18 be 22 27 c0 bd 30 ab 66 bc
       -0.10060407 -0.1488979 -0.09382464 -0.0140789
0003f0 32 82 99 3d 4d da 28 be 80 cc b7 3b f9 27 21 3e
       0.07495536 -0.16489525 0.005609095 0.15737905

conv1.bias f4 [64]
000000 7a 5b a3 bd 1b 08 2c 3e 0e 32 b3 3d 80 e5 10 3c
       -0.07976432 0.16799967 0.087497815 0.00884378
000010 68 3b 0a bd ed b5 27 be 48 b6 84 bd 51 f7 02 3e
       -0.03374806 -0.16377993 -0.0648008 0.12789656
000020 bd 5d 1e 3e 77 3b 19 3e 8a 33 97 3d 80 f1 c4 ba
       0.15465446 0.1496409 0.07382877 -0.0015025586
000030 f0 15 7e bd dd 51 c8 bd 90 37 38 be 40 d8 9c 3b
       -0.06203264 -0.09781239 -0.17989945 0.004786521
000040 54 12 75 bd 45 75 d0 bd 78 7f 56 bd 40 ff 98 3b
       -0.059831932 -0.101786174 -0.052367657 0.0046691
000050 32 18 df 3d 3e b7 36 be 0a 3c ce 3d 90 74 6f 3c
       0.10893287 -0.17843339 0.10070045 0.014615193
000060 2e 70 0e be ad e4 9b bd 70 5b 56 bc 64 ff 2e 3d
       -0.1390998 -0.07611976 -0.013083324 0.04272403
000070 f6 bf e3 3d dc ed 26 3d c4 fb 1c bd 31 1f 21 3e
       0.11120598 0.040754184 -0.03832604 0.15734555
000080 11 28 34 3e 58 1b 64 3d 40 32 ff 3b 50 62 bc 3c
       0.17593409 0.05569014 0.0077879727 0.022996098
000090 e5 a6 40 3e 64 dd 05 3d ae df 89 3d 07 db 35 3e
       0.18813665 0.032681838 0.06732117 0.17759334
0000a0 00 96 cb 3c 0a ad 8a bd 32 5a a8 3d a5 74 2d 3e
       0.024851799 -0.06771286 0.082203284 0.16939028
0000b0 4a 36 ed 3d 78 36 34 bd 2c e7 60 3d 76 d7 30 be
       0.115826204 -0.043997258 0.054907963 -0.17269692
0000c0 72 9b 11 be 83 16 01 3e 2b 3a 0a 3e a3 71 0a 3e
       -0.14219454 0.12606244 0.13498752 0.13519911
0000d0 b4 e9 30 be 54 1c 7f bd f6 e3 88 bd 29 d2 2d 3e
       -0.1727665 -0.062282875 -0.06684105 0.16974701
0000e0 f0 cb 0d bc ad fd 0e 3e c1 44 10 3e b3 b5 8a bd
       -0.0086545795 0.13963957 0.14088728 -0.067729376
0000f0 80 b7 f2 bc 8c a8 71 3d fe d1 a4 3d 38 3c a3 bc
       -0.029628515 0.05899863 0.08047865 -0.019926175

conv2.weight f4 [128, 64, 3, 3]
000000 40 7b 1a bc b8 8f 80 3b 10 98 5c 3c e0 61 a8 3c
       -0.009428799 0.0039233826 0.013463989 0.020554483
000010 76 8d ac bc 08 0a 14 bd 2c 6e 79 bc 70 bd 4b bc
       -0.021063548 -0.03614238 -0.015224021 -0.012435302
000020 09 1c 27 3d d6 ab ec bc e0 b9 6a bc 58 85 cd 3b
       0.04079822 -0.028890532 -0.014326543 0.0062719993
000030 48 54 fb bc 28 0b 92 bb ee ba 0d bd f6 09 6c bc
       -0.030679837 -0.0044568963 -0.0346021 -0.014406672
000040 80 80 bc 39 60 b7 9c bc f2 c8 27 bd 36 b2 5c bc
       0.00035953894 -0.019130409 -0.04096312 -0.013470223
000050 ab 16 ac bc b8 c9 e3 3b 16 2f e2 3c e6 5a 9e bc
       -0.021006903 0.006951537 0.027610343 -0.019330453
000060 8e 8b 9b bc 06 36 87 3c 78 6e d9 bb 78 81 83 3b
       -0.018987443 0.016505253 -0.0066354834 0.0040132366
000070 53 fd 1b bd 3a 10 ad 3c ca 0c f4 3c d3 53 a7 bc
       -0.038083386 0.021125901 0.029791255 -0.020425713
000080 0d cf 1a 3d 23 d9 a8 bc eb 0a 9e bc 7c 7e 5c 3c
       0.037795115 -0.020611351 -0.019292315 0.013457891
000090 80 d7 7d bc 26 93 7f bc 43 1c 26 bd 98 cf ba 3b
       -0.015493274 -0.015599048 -0.040554296 0.0057010166
0000a0 74 8b 25 3c 48 fc 87 bb 2e 49 ae 3c 6c 43 26 3c
       0.010104049 -0.0041499473 0.02127513 0.010147911
0000b0 9b f6 e8 bc 13 f1 89 bc 1c 95 14 3c 7c 3b 56 bc
       -0.028437903 -0.016838586 0.009068754 -0.013075706
0000c0 5b fe be bc ca 81 f2 3c 10 a4 98 3c d8 3d ec bc
       -0.023314646 0.029602904 0.018632919 -0.028838083
0000d0 b0 8d 6b 3c 00 58 82 3b ad 0d 23 3d ea 43 20 bd
       0.014377043 0.0039777756 0.039807964 -0.039127268
0000e0 90 98 47 3c b8 d5 bf bc bc 4c 10 bc 0d 73 0a 3d
       0.01218237 -0.023417339 -0.008807357 0.033801127
0000f0 b2 01 f2 3c b8 a6 ae bc 60 e9 9a 3b d3 a1 bc bc
       0.029541824 -0.021319732 0.0047275275 -0.023026383
000100 30 d6 18 3b 58 dd 99 3b 00 68 73 3b 76 bd cc 3c
       0.0023321025 0.0046955757 0.0037140846 0.024992686
000110 a0 3d 1f bc 30 76 aa 3c 02 2a 0c bd f3 56 23 bd
       -0.009719282 0.02080831 -0.03421975 -0.039877843
000120 56 90 9b bc 60 11 d0 bb 18 a4 b0 bc c8 c2 a2 bb
       -0.018989723 -0.0063497275 -0.021562621 -0.0049670674
000130 f1 42 02 3d e2 1d b4 3c a0 c3 a0 bb 40 52 a7 bb
       0.03180212 0.021986905 -0.004906133 -0.0051062405
000140 f3 fe ec bc b0 1d 40 3b 4e 58 82 3c d6 24 5c bc
       -0.028930163 0.002931457 0.015911248 -0.013436517
000150 db 54 9a bc b3 75 db bc 21 bc 18 3d 98 49 98 bb
       -0.01883929 -0.026789522 0.03728879 -0.004647445
000160 fe 3d 95 bc 10 b0 a4 bc 52 84 f2 3c a9 11 25 3d
       -0.018218037 -0.020103484 0.02960411 0.040300045
000170 22 6b e9 3c 6a a8 dd 3c f8 23 8c 3c 32 07 b2 3c
       0.028493468 0.027057845 0.017106995 0.021731947
000180 44 25 2a 3c c0 7f a2 bb 42 3a b2 3c 74 80 07 bd
       0.010384861 -0.0049590766 0.021756295 -0.033081487
000190 ce 04 bf 3c 48 6d 86 3b d8 d3 91 bb 5a 01 f3 3c
       0.02331772 0.004102383 -0.0044503026 0.02966373
0001a0 fb b0 23 bd 63 40 0f 3d 80 ab 2a bb 80 36 7f 3b
       -0.039963704 0.034973513 -0.0026042163 0.0038942397
0001b0 20 26 86 3a 12 f6 ee 3c 80 cd 12 bc 16 4d 9f bc
       0.0010234751 0.02917007 -0.008960128 -0.019445937
0001c0 50 5a 7a 3c 70 a1 77 3b ad 21 08 3d 14 1c 17 bc
       0.015280321 0.0037785433 0.03323524 -0.009223003
0001d0 fe 32 24 bd 40 01 f8 bb 55 bf 22 3d 6c 41 09 3c
       -0.040087692 -0.0075685084 0.03973325 0.008377414
0001e0 94 9d 0a bc 21 f0 04 3d f8 51 f2 3b 20 00 56 bc
       -0.008460421 0.032455567 0.0073950253 -0.013061553
0001f0 f0 27 54 bc 36 e6 9c 3c 29 f2 09 3d 18 c1 f6 bc
       -0.012948975 0.019152742 0.033678208 -0.030121371
000200 60 60 c4 ba fa a4 9b 3c 4a a4 af 3c b0 36 ec bc
       -0.0014982335 0.018999565 0.021440644 -0.02883467
000210 2a 06 df 3c 8c 65 57 bc 4c 90 32 3c 2c f1 34 3c
       0.027224619 -0.013146769 0.010898661 0.011043828
000220 8a d5 bf 3c f8 f1 b0 bc 98 04 c2 3b ae 9f d3 bc
       0.023417253 -0.021599755 0.005920958 -0.025832977
000230 80 e2 e2 3b 90 38 63 bb 10 d8 27 3c 30 3a e7 bc
       0.0069239736 -0.0034671165 0.010244384 -0.028225988
000240 68 98 e9 3b 33 6d be bc e2 c1 c8 3c 38 42 94 bb
       0.007128764 -0.02324543 0.024506513 -0.0045244955
000250 38 d3 c1 3b 61 9a 04 3d 28 78 0b bd bc e9 24 3c
       0.005915072 0.03237379 -0.034050137 0.010065492
000260 6a 54 b7 3c fb 23 0a 3d 98 b1 c9 3b 8a 97 f2 3c
       0.022379119 0.03372572 0.006155204 0.029613275
000270 80 bf 41 bc 16 91 61 bc 7a 89 af 3c b9 17 10 3d
       -0.011825442 -0.013767501 0.021427859 0.035178874
000280 68 41 c4 bc ca 7a de 3c 8c d6 7d bc 54 0c 08 3c
       -0.02395697 0.02715816 -0.0154930465 0.0083037205
000290 08 0f ac 3b 15 e2 29 3d b8 4f 85 bc c1 2b 20 3d
       0.0052508153 0.041475374 -0.016273364 0.039104227
0002a0 f6 29 a5 bc 07 5d 21 bd fb 34 84 bc a8 68 2a bd
       -0.02016161 -0.03939536 -0.016138544 -0.041603714
0002b0 0c 8c 66 bc 26 42 b0 3c 24 d3 0b bc 3f cf 02 3d
       -0.014071476 0.021515917 -0.008534227 0.031935927
0002c0 c0 76 e9 3b 30 cd 4e 3b f0 80 4a bc 1c da 1c bd
       0.007124752 0.0031555407 -0.012359843 -0.038293943
0002d0 de 54 f1 3c 10 56 5e 3b 80 5a 3e 3b 8c eb 03 3c
       0.029459413 0.003392581 0.0029045641 0.008051764
0002e0 c0 1c 03 ba f0 79 19 bd 6c 89 6d 3c 00 61 e9 bc
       -0.00050015375 -0.037469804 0.014498096 -0.028488636
0002f0 f3 fb 04 3d 25 5b 1b 3d 10 84 42 bc 9b de 97 bc
       0.03246684 0.03792872 -0.0118723065 -0.018538764
000300 52 18 06 bd f0 d9 00 3c f8 1a f2 bb e8 5b 8d 3c
       -0.032738037 0.00786446 -0.007388469 0.017255738
000310 08 b6 87 bc 00 ab 3d ba 81 f4 21 3d 9c ae 25 bc
       -0.016566291 -0.0007235259 0.039539818 -0.010112431
000320 06 61 3d bc 2c 28 24 3c 10 78 6a bc 62 32 d3 3c
       -0.011558777 0.010019343 -0.014310852 0.02578086
000330 6a 61 b4 3c 3c 0d 45 3c 3e 6b d6 bc ac 18 5e bc
       0.022019107 0.012027081 -0.026174184 -0.013555687
000340 bc cf 20 bd cb 35 8c bc 6a 6d 05 bd b0 b2 3f 3b
       -0.03926061 -0.017115494 -0.03257505 0.0029250793
000350 54 dc 07 bd f6 c1 ce 3c d6 f3 80 3c 08 e5 f9 3b
       -0.033169106 0.025238972 0.01574127 0.0076261796
000360 a0 77 ac 3a 06 6b e7 3c 9a 4b d9 3c 18 94 cc bb
       0.001315821 0.028249275 0.026525307 -0.00624324
000370 ce ae d9 3c 7f 23 10 3d ae 20 18 bd 74 26 09 bc
       0.026572611 0.0351901 -0.03714054 -0.008370984
000380 cb 12 9c bc 90 cd 66 3c 75 d4 27 3d d0 c3 5c bc
       -0.01905193 0.014087096 0.0409741 -0.01347442
000390 dc 54 77 3c 50 b2 00 3b 50 08 7a 3c fe 9a a1 bc
       0.015095916 0.0019637533 0.015260771 -0.019727226
0003a0 c0 53 8f 3c 6d ce 28 3d 1e c8 bc bc 80 a2 e5 3b
       0.01749599 0.041212488 -0.023044642 0.007007897
0003b0 c0 20 6d 3a 50 4b 33 3b 34 99 44 3c 30 cd 55 bb
       0.00090457126 0.0027358122 0.011999417 -0.0032623522
0003c0 00 5c ca 39 52 3b b5 3c f0 7c ae bc d6 60 99 bc
       0.00038596988 0.022123013 -0.02129981 -0.018722933
0003d0 40 38 61 ba 50 6c c8 bc 8e ff 91 3c e0 7d c1 bc
       -0.0008591451 -0.02446571 0.017822053 -0.023619592
0003e0 9a 0e e9 3c 9d 8c 24 3d 60 d0 8e 3c d0 37 36 3b
       0.028449345 0.04017316 0.017433345 0.0027804263
0003f0 66 5f 47 bc c2 7e a4 3c 63 e5 04 3d e8 54 80 bb
       -0.012168741 0.020079974 0.032445323 -0.0039163716

conv2.bias f4 [128]
000000 ab 1b ab bc 60 d1 dd bc 0a 78 fc 3c 80 0a 74 bc
       -0.020887217 -0.027077377 0.030818958 -0.0148950815
000010 ea 97 b7 3c f9 98 19 3d aa 21 c6 3c 94 3e 00 bd
       0.022411305 0.0374994 0.024185974 -0.03130968
000020 08 51 0b bd 78 a6 f0 3b f6 d9 62 bc 28 be a5 3b
       -0.034012824 0.0073440634 -0.013845911 0.005058069
000030 28 64 da bb c0 72 7c 3c 2e 8e 9c bc e0 af a2 3a
       -0.0066647716 0.015408218 -0.019110765 0.0012412034
000040 66 93 cc 3c 96 f7 ce bc 86 e9 de bc c3 dd 94 bc
       0.024972629 -0.025264543 -0.027210962 -0.01817215
000050 9e 50 ee bc 00 6a 27 bd 46 2a 94 3c d4 0f 68 3c
       -0.029091176 -0.040872574 0.018086564 0.01416393
000060 12 b6 c9 3c 20 30 a3 3b c4 ee 7c 3c 58 47 aa bb
       0.02462295 0.004980102 0.015437786 -0.005196493
000070 48 0b ea 3b a3 85 14 bd 6a 27 de 3c 08 55 ba bb
       0.007142458 -0.03626026 0.027118403 -0.005686406
000080 68 32 84 3c e9 34 1d 3d ac 61 13 3c 88 16 9f bc
       0.016137317 0.038380537 0.008995455 -0.019419923
000090 24 34 64 3c 0d c1 04 3d ae 7a 84 3c 07 f5 1c 3d
       0.013928447 0.03241067 0.01617178 0.038319614
0000a0 70 5a 14 3b e6 bd 17 bd 61 48 05 3d 4b b3 a6 bc
       0.0022636913 -0.037046336 0.03253973 -0.020349165
0000b0 02 c5 b1 3c 60 ee 99 3c 80 03 ef b9 00 a9 f0 bc
       0.021700386 0.018790424 -0.0004558824 -0.02937746
0000c0 16 1b 9b bc a8 af dc 3b 0e 4d 87 3c 56 53 65 bc
       -0.018933814 0.006734807 0.016516235 -0.01399692
0000d0 89 51 12 3d 70 57 61 3c 78 3c d2 bb 5c b9 11 bd
       0.03572229 0.013753757 -0.0064159 -0.035577163
0000e0 7e 76 e2 bc a2 78 e7 3c cc f4 17 3c 5e a4 e8 bc
       -0.027644392 0.028255764 0.009274673 -0.028398689
0000f0 f6 a2 0c bd 0e d0 9d bc 2a 36 e7 3c c9 7c 1c 3d
       -0.0343351 -0.019264247 0.02822407 0.038204942
000100 70 9c ed bc 18 9a ce bc 20 84 eb bb 2d 70 10 3d
       -0.02900526 -0.025219962 -0.0071873814 0.03526323
000110 80 77 98 bc bc af 5b 3c 27 00 21 bd 66 30 5c bc
       -0.01861167 0.013408598 -0.039306786 -0.013439273
000120 a8 29 c4 bc b6 25 c8 bc 59 59 11 3d fd 25 18 3d
       -0.023945644 -0.024432044 0.0354856 0.037145603
000130 43 42 8d bc 2c 17 2a 3c 21 53 03 3d 86 08 30 bc
       -0.01724351 0.010381501 0.0320617 -0.01074422
000140 7a cb c8 3c b8 d8 96 bc 74 94 46 3c 56 dc 23 bd
       0.024511088 -0.018413886 0.012120355 -0.04000505
000150 d8 c3 a6 bc 6a 51 df 3c ca f4 20 bd f7 df 05 3d
       -0.020357057 0.027260501 -0.03929595 0.032684293
000160 1e 78 fa bc 80 e2 c5 3b f0 0b a9 bc 88 c6 ee bb
       -0.030574854 0.006038964 -0.020635575 -0.0072868504
000170 58 0b a3 bc 82 56 87 3c b6 a4 7d bc c1 47 10 3d
       -0.01990287 0.016520742 -0.015481165 0.03522468
000180 ef b1 1c bd 18 24 88 bc fa 6c ca 3c 7b d3 8d bc
       -0.03825563 -0.016618773 0.024710167 -0.017312756
000190 48 4f b3 bb 40 1f 5d 3c 6a 53 f1 3c 1f df 1b 3d
       -0.0054720975 0.01349622 0.02945872 0.03805458
0001a0 90 0f 16 3c fb 1a 15 3d e8 13 d3 3b 13 04 13 bd
       0.009158984 0.036402684 0.006441582 -0.035892557
0001b0 98 ab f8 bb 0e 94 84 bc 8a 83 ba 3c 54 ad 7a 3c
       -0.007588815 -0.01618388 0.0227678 0.015300114
0001c0 2e cc 20 bd d0 c6 5e 3b 38 5b d8 bc 4c 7b 6b 3c
       -0.03925722 0.0033993013 -0.026410684 0.014372658
0001d0 9b a5 92 bc f4 e7 6a 3c e2 18 d1 3c f4 62 0c bd
       -0.017901232 0.0143375285 0.02552456 -0.034274057
0001e0 c0 44 51 3b 5c ae 55 3c 88 1f f8 bb 36 68 d8 bc
       0.0031931847 0.013042059 -0.007572118 -0.02641688
0001f0 e3 cf 9f bc c5 17 23 3d 48 70 86 3c 58 f8 f6 3b
       -0.019508308 0.03981759 0.016410962 0.007536929

linear.weight f4 [1, 50]
000000 1a 7f b2 3d e8 24 0f 3d 80 95 b0 bd 3c e4 eb bc
       0.08715649 0.034947306 -0.08622265 -0.028795354
000010 1b 91 c6 bd 0c 6a a6 bc a8 54 de 3c 28 bc a4 3c
       -0.096956454 -0.020314239 0.027139977 0.020109251
000020 30 41 cc 3d f0 5e 27 bc 18 43 3d 3d c0 eb c7 3c
       0.09973371 -0.010215506 0.046206564 0.024404407
000030 50 4a 67 3c 3b cc b8 bd f4 81 03 3d e4 ab d7 bd
       0.014116839 -0.09023329 0.032106355 -0.105308324
000040 f5 b4 8e bd 80 70 5f bc 71 6f 10 be 58 6b bc bd
       -0.069681086 -0.013637662 -0.14105012 -0.09200162
000050 f0 05 12 3d d0 d4 00 3d eb eb ec bd c6 f5 ec 3d
       0.035650194 0.031452954 -0.11568435 0.11570315
000060 b8 7c b1 bd 35 68 0c 3e 1a 7f d2 bd 45 d8 cd bd
       -0.08666366 0.13711627 -0.10278149 -0.10051016
000070 f4 56 72 3d 48 c2 d4 3c 8a b3 a7 3d fa 6f bb bd
       0.059164956 0.025971547 0.08188541 -0.09152217
000080 f8 99 93 3d b4 6b cc bc f6 b6 46 bd bf 88 d7 bd
       0.072071016 -0.0249537 -0.04851433 -0.10524129
000090 50 9c 70 3c 1a 2f fd 3d 38 41 a7 3c 1e fa f7 3d
       0.014685705 0.123624995 0.02041684 0.12108253
0000a0 dc 11 18 3d 44 05 2e 3d 79 f4 8e bd 30 fa 6f 3d
       0.037126407 0.04248549 -0.06980223 0.058588207
0000b0 98 b6 da 3d 00 7d d4 3c ea 0e ca bd 72 cd de 3d
       0.10679358 0.02593851 -0.09866126 0.10879029
0000c0 64 c6 77 3d 44 f2 1a 3d
       0.060491934 0.0378287
