PositioningWith80211azFingerprintingAndDeepLearningExample/models/6gcnn.pth (torch, 5727 bytes, 4 tensors)

seq.0.weight f4 [20, 48]
-0.0038054138 -0.05178661 0.12831417 0.12088764 0.05941011 0.019088566 0.048034415 -0.019207582
0.1327799 -0.12285607 0.053524405 0.093443975 -0.08661047 0.047273368 -0.06021692 -0.022633336
0.039663866 -0.092538774 0.09156175 -0.0618819 -0.07308915 0.07781285 0.05279869 0.0028189272
0.10468142 -0.07699922 -0.1108035 -0.1006568 0.09858665 0.04050003 -0.014294803 -0.14077443
0.12411001 0.07823083 -0.08455123 -0.0009405464 -0.00697878 0.039976507 -0.09722075 -0.12593469
-0.04225935 0.14355615 -0.014277354 -0.030537315 0.10631752 0.071257666 -0.12987499 0.0068094134
1.2447424 -0.23309079 -0.8444824 -0.50179875 -0.37739038 -0.22308879 -0.13048807 0.10477334
-0.18780547 -0.0014477506 -0.02777214 -0.023347752 -0.16492796 0.23599184 0.11681367 0.2551481
-0.14266169 -0.078820005 -0.09696602 -0.15522885 -0.13874915 0.013112491 0.014538983 0.00829291
-0.15689877 -0.32743287 -0.15223607 0.14918391 -0.09677925 0.06305389 -0.13292973 -0.019424984
-0.0076488345 0.1641084 -0.1439391 0.17928456 -0.15788797 0.15548567 0.11683734 0.15316412
0.03439754 -0.08491372 -0.14327791 0.11761311 -0.087073915 -0.02799091 -0.09249964 -0.14002974
-0.05991911 0.11851531 -0.10642047 0.038053438 0.0135266185 -0.1021259 -0.11592127 -0.13439907
0.06765212 -0.12182978 -0.084416956 -0.14027576 -0.04622951 -0.08646572 -0.050158 -0.06141554
-0.08093721 -0.14280933 0.12501663 0.13503629 -0.045753375 -0.066464625 -0.023941815 0.14413461
0.0024999082 0.08087753 -0.0059369057 0.09355192 0.023783803 0.06126547 0.029260427 -0.04408037
-0.096260466 0.06809279 -0.13469405 -0.055329293 -0.074647 -0.013357878 -0.042618908 -0.06065906
-0.038041137 -0.09238295 -0.044972517 -0.12665679 0.115368605 -0.08123995 0.058064252 -0.09584756
0.01669377 0.028110504 0.02990985 -0.11007461 -0.057507128 -0.07140955 -0.02162797 -0.085319236
-0.043576494 0.035492644 -0.054696597 -0.08517785 -0.008609474 -0.014595434 0.123663604 0.055202693
0.01860556 -0.0046553463 -0.026286945 0.06685318 0.02526556 0.03277524 -0.06396241 0.09039548
0.12899095 -0.10535803 -0.020950414 0.0026859343 -0.04680925 0.09902643 -0.13258041 0.10336019
0.058611408 -0.12524755 -0.105095305 -0.037443675 -0.11825958 0.021509022 0.09407729 0.080517724
-0.09871561 -0.059769124 -0.10810107 0.09287712 0.078150555 -0.07458141 -0.0071970373 -0.006263539
0.13389476 6.419235 -0.4618701 0.4144811 0.07646162 0.50752336 -0.06871705 0.16425042
0.120956 -0.46809092 0.052760553 -0.06014865 -0.45919663 0.35127303 0.11182923 -0.052033965
0.07221473 -0.20883739 0.14041062 -0.2687845 -0.39862725 0.3570685 -0.3944853 0.21753643
-0.25593385 -0.12109369 0.012212074 0.006788274 -0.38878486 0.025596691 0.22788268 -0.15884611
0.3881341 0.02136255 -0.3369756 0.3397221 0.2288211 0.16225372 0.18401566 0.21734656
-0.2974141 0.27455857 0.26144657 -0.17892303 -0.22852881 -0.37671453 0.083380245 -0.34759063
-0.33602622 0.7505032 -1.4470711 -1.2059951 -0.56316257 -0.3869484 0.018893152 -0.12781893
-0.17606673 -0.0027227032 0.038128067 0.012349939 -0.0072876806 -0.21320868 0.05445185 0.23053546
00000000: 4064 79bb 321e 54bd ca64 033e f093 f73d
00000010: 0458 733d a05f 9c3c bcbf 443d 3859 9dbc
00000020: 74f7 073e f79b fbbd 683c 5b3d 8e5f bf3d
00000030: d560 b1bd b8a1 413d 04a6 76bd 8c69 b9bc
00000040: 9476 223d f884 bdbd ba84 bb3d e077 7dbd
00000050: c4af 95bd 585c 9f3d 7043 583d c0bd 383b
00000060: 3663 d63d c4b1 9dbd f2ec e2bd 2725 cebd
00000070: cce7 c93d 5ce3 253d c034 6abc 2c27 10be
00000080: 642d fe3d 7c37 a03d 3229 adbd 008f 76ba
00000090: 40ae e4bb 68be 233d ac1b c7bd 06f5 00be
000000a0: 2418 2dbd 6200 133e 90eb 69bc 6429 fabc
000000b0: 00bd d93d 8aef 913d f3fd 04be 8021 df3b
000000c0: b853 9f3f 5aaf 6ebe 0030 58bf e275 00bf
000000d0: 5039 c1be 6371 64be aa9e 05be 6893 d63d
000000e0: 1450 40be 73c2 bdba 6682 e3bc c943 bfbc
000000f0: e0e2 28be d8a7 713e 013c ef3d c6a2 823e
00000100: e815 12be 626c a1bd 1f96 c6bd 50f4 1ebe
00000110: 4214 0ebe c6d5 563c ea34 6e3c fcde 073c
00000120: 12aa 20be 48a5 a7be c6e3 1bbe abc3 183e
00000130: 3334 c6bd 6622 813d bb1e 08be 2521 9fbc
00000140: 13a3 fabb 080c 283e c564 13be 5f96 373e
00000150: 62ad 21be a337 1f3e 6a48 ef3d 0ed7 1c3e
00000160: 6fe4 0c3d 3fe7 adbd 72b7 12be 24df f03d
00000170: cf53 b2bd 314d e5bc 7470 bdbd f563 0fbe
00000180: be6d 75bd 28b8 f23d faf2 d9bd ecdd 1b3d
00000190: c09e 5d3c 6227 d1bd 2168 edbd e99f 09be
000001a0: 328d 8a3d e481 f9bd cce2 acbd 73a4 0fbe
000001b0: 285b 3dbd f014 b1bd 7a72 4dbd dc8e 7bbd
000001c0: 68c2 a5bd 9c3c 12be 5c04 003e f446 0a3e
000001d0: e467 3bbd 9b1e 88bd a021 c4bc 0698 133e
000001e0: 80d5 233b 1ea3 a53d 608a c2bb 2698 bf3d
000001f0: 40d6 c23c 80f1 7a3d 90b3 ef3c 9e8d 34bd
00000200: 3524 c5bd 3c74 8b3d 3ded 09be f8a0 62bd
00000210: 87e0 98bd 00db 5abc 2a91 2ebd a275 78bd
00000220: 06d1 1bbd 4633 bdbd 1a35 38bd 51b2 01be
00000230: 6046 ec3d 2261 a6bd c8d4 6d3d ba4b c4bd
00000240: 60c1 883c 0048 e63c 8005 f53c cc6e e1bd
00000250: 988c 6bbd 2c3f 92bd 242d b1bc dabb aebd
00000260: 447d 32bd bc60 113d 8a09 60bd ba71 aebd
00000270: c00e 0dbc b021 6fbc 5843 fd3d 381c 623d
00000280: b06a 983c e08b 98bb b857 d7bc 52ea 883d
00000290: b8f9 ce3c 543f 063d b9fe 82bd 4421 b93d
000002a0: 3416 043e f3c5 d7bd 34a0 abbc 8006 303b
000002b0: 0ebb 3fbd 5ece ca3d 29c3 07be 82ae d33d
000002c0: 8412 703d e540 00be 353c d7bd 8a5e 19bd
000002d0: 1432 f2bd b033 b03c 98ab c03d 7ae6 a43d
000002e0: 692b cabd 78d0 74bd 1864 ddbd 5c36 be3d
000002f0: 660d a03d 23be 98bd 20d5 ebbb 603e cdbb
00000300: b51b 093e 606a cd40 3d7a ecbe de36 d43e
00000310: e997 9c3d 0ded 013f 86bb 8cbd 4331 283e
00000320: c8b7 f73d 9da9 efbe 731b 583d 6e5e 76bd
00000330: d21b ebbe 0fda b33e b906 e53d 9121 55bd
00000340: 51e5 933d 78d9 55be cdc7 0f3e 1f9e 89be
00000350: df18 ccbe afd1 b63e faf9 c9be dfc1 5e3e
00000360: c309 83be f8ff f7bd 2715 483c 2b70 de3b
00000370: cf0e c7be 27b0 d13c 145a 693e 8ea8 22be
00000380: 83b9 c63e 8400 af3c 1188 acbe 0ef0 ad3e
00000390: 1450 6a3e d725 263e 9a6e 3c3e 1990 5e3e
000003a0: a946 98be f192 8c3e 53dc 853e 9937 37be
000003b0: 7503 6abe bae0 c0be 43c3 aa3d 66f7 b1be
000003c0: a10b acbe fa20 403f a039 b9bf 0c5e 9abf
000003d0: 6c2b 10bf 1a1e c6be d0c5 9a3c f7e2 02be
000003e0: d64a 34be 616f 32bb 2d2c 1c3d 6657 4a3c
000003f0: 7fcd eebb 6053 5abe e708 5f3d 7d11 6c3e

seq.0.bias f4 [20]
-0.0789864 -1.411946 -0.01449661 -0.08330879 -0.3851524 0.25840262 -0.073319234 -0.05127489
-0.033036485 -0.08306649 1.151307 -0.6625197 0.6833036 -0.63685614 -0.093614504 -0.056791805
-0.024496153 0.6268732 0.050428465 -0.052467477
00000000: 9fc3 a1bd a6ba b4bf 3083 6dbc cd9d aabd
00000010: b232 c5be 594d 843e 6528 96bd 9e05 52bd
00000020: 4451 07bd c41e aabd 075e 933f e49a 29bf
00000030: fcec 2e3f 0109 23bf f6b8 bfbd 869e 68bd
00000040: 28ac c8bc c37a 203f 148e 4e3d 23e8 56bd

seq.2.weight f4 [3, 20]
-0.07204695 0.27342013 -0.054958418 0.14333054 0.2780384 -0.80656767 0.025838235 -1.1318146
0.045075834 0.096944064 0.80329716 0.7080245 -1.614756 0.039490458 -0.0022785217 0.13156542
-0.073303595 0.46700302 -0.20187137 -0.8004446 -0.11456429 1.0009029 0.16054511 0.08708453
2.9691024 -0.353587 -0.026664395 0.6424418 0.046195418 0.11411327 1.2373033 0.7630243
-0.075151816 -4.7240453 -0.09546876 -0.18805352 -0.09789696 0.25624406 0.01929705 0.34345144
0.024414927 -0.07388318 -0.10460326 0.16080153 -0.24556352 0.2915784 -0.20654 0.795435
-0.14037472 -0.14956757 0.04890881 0.14125818 -0.4131591 -0.39503524 0.11083552 0.1350266
0.00036220253 -0.4915774 -0.19244993 0.7429092
00000000: 5a8d 93bd b9fd 8b3e 141c 61bd 3ec5 123e
00000010: 0d5b 8e3e 387b 4ebf b5aa d33c 4ddf 90bf
00000020: 70a1 383d 9c8a c63d e2a4 4d3f 1841 353f
00000030: 53b0 cebf bfc0 213d 4053 15bb 16b9 063e
00000040: 3220 96bd 051b ef3e 5eb7 4ebe f0e9 4cbf
00000050: afa0 eabd 961d 803f f065 243e 6059 b23d
00000060: c605 3e40 5b09 b5be 4a6f dabc 1177 243f
00000070: 6837 3d3d 38b4 e93d f45f 9e3f 8f55 433f
00000080: 32e9 99bd 612b 97c0 2085 c3bd 1a91 40be
00000090: 347e c8bd 6c32 833e d914 9e3c ded8 af3e
000000a0: d001 c83c 1150 97bd 3c3a d6bd 28a9 243e
000000b0: 0175 7bbe c449 953e 397f 53be a1a1 4b3f
000000c0: 64be 0fbe 3e28 19be 9b54 483d fca5 103e
000000d0: 9789 d3be 0f42 cabe bcfd e23d 6a44 0a3e
000000e0: 00e6 bd39 08b0 fbbe 9811 45be 4c2f 3e3f

seq.2.bias f4 [3]
2.537484 2.2140937 1.8929857
00000000: 2366 2240 b6b3 0d40 5b4d f23f
