PositioningWith80211azFingerprintingAndDeepLearningExample/models/cnn_new_dataset.pth (torch, 39575 bytes, 6 tensors)

seq.0.weight f4 [16, 1, 3, 3]
0.2535974 -0.2573907 0.3228095 -0.25322425 -0.28960153 -0.17486227 0.059629083 0.168601
-0.07499173 0.022119742 0.3623696 0.0054709436 0.16521475 0.54649764 0.5724196 0.32902274
0.24766776 0.47462693 -0.3335095 -0.41375795 -0.181216 -0.656115 -0.7522349 -0.6056413
-0.12864399 0.6964512 0.71060354 0.10520712 -0.044475734 -0.37957552 0.069452226 0.65530425
0.35348085 1.115181 0.44644567 -0.23953351 1.1548954 0.47103727 -0.14952175 0.6315231
-0.028274255 -0.025686547 -0.16707908 0.26300785 -0.3550811 1.1620431 -1.1643493 -0.73526883
-0.43132457 -0.9816036 -0.99401957 -0.8635914 1.0574256 0.02875566 -0.05187769 -0.078563675
0.5151971 0.13417478 0.3701478 1.3955286 0.122030474 0.2083998 -0.173901 0.60313237
0.003123119 -0.2278403 -0.668704 0.052466474 -0.2809503 0.34644207 -0.5591044 -0.30454066
-0.20295966 -0.7540069 0.9419896 -0.67218333 -0.44384125 -0.49242318 1.1692462 -0.092364855
-0.42369947 1.8385834 -0.28245848 -0.29309678 0.8311185 -0.9457572 -0.17869534 1.4139374
-0.7698463 -0.078030616 0.15013771 1.0336896 -0.69467026 -0.97141474 -0.95021 -0.556238
1.0006835 -0.7213395 -0.12597485 -0.03562838 1.4643999 0.5304266 -0.012449442 0.40978757
0.20860903 -0.11433026 0.16001517 0.05664343 -0.49181107 0.14346048 -0.58095384 -0.04588023
0.68708026 0.03504975 0.27862263 0.22570892 1.116216 -0.60943437 -0.52150947 -0.5306884
-0.4192944 -0.5782294 -0.7013749 0.12747926 -0.3770057 0.8080841 1.9528605 -0.102401026
0.45255375 1.1212014 -0.43084756 -0.2987207 1.4663568 0.21486683 -0.071071744 0.077164866
-0.0915683 0.9143718 0.7728996 0.49862733 -0.71069 0.29020828 0.5007818 -0.1903079
00000000: 85d7 813e b7c8 83be 4947 a53e 9ca6 81be
00000010: a746 94be 180f 33be a03d 743d bea5 2c3e
00000020: 4495 99bd 7634 b53c 8288 b93e 9a45 b33b
00000030: 0e2e 293e 45e7 0b3f 178a 123f ab75 a83e
00000040: 9e9c 7d3e 4d02 f33e c2c1 aabe 15d8 d3be
00000050: b090 39be 27f7 27bf 7792 40bf 4f0b 1bbf
00000060: 40bb 03be a04a 323f 1dea 353f d576 d73d
00000070: 302c 36bd b957 c2be f83c 8e3d 05c2 273f
00000080: 71fb b43e 40be 8e3f 8794 e43e 4648 75be
00000090: 9dd3 933f cc2b f13e 3b1c 19be 7fab 213f
000000a0: 699f e7bc 986c d2bc c716 2bbe f7a8 863e
000000b0: 31cd b5be d4bd 943f 6609 95bf 943a 3cbf
000000c0: 93d6 dcbe 604a 7bbf 1178 7ebf 5314 5dbf
000000d0: b959 873f fd90 eb3c b37d 54bd fee5 a0bd
000000e0: f5e3 033f 1d65 093e 0384 bd3e aea0 b23f
000000f0: 1deb f93d c266 553e 1b13 32be e266 1a3f
00000100: 3ead 4c3b f84e 69be 2f30 2bbf 16e7 563d
00000110: b8d8 8fbe db60 b13e 7721 0fbf c1ec 9bbe
00000120: a8d4 4fbe 9906 41bf 3b26 713f 3514 2cbf
00000130: 293f e3be e41e fcbe dca9 953f c929 bdbd
00000140: 23ef d8be b356 eb3f 669e 90be c810 96be
00000150: 2fc4 543f 251d 72bf e9fb 36be e7fb b43f
00000160: a614 45bf 84ce 9fbd b3bd 193e f14f 843f
00000170: e9d5 31bf a3ae 78bf f640 73bf 9d65 0ebf
00000180: 6616 803f b5a9 38bf 8dff 00be 10ef 11bd
00000190: 7571 bb3f 0aca 073f bff8 4bbc adcf d13e
000001a0: 9b9d 553e fc25 eabd 04db 233e f102 683d
000001b0: a9ce fbbe 4ee7 123e 64b9 14bf e8ec 3bbd
000001c0: 7ee4 2f3f 5490 0f3d a0a7 8e3e 3d20 673e
000001d0: 2ae0 8e3f e403 1cbf a581 05bf 32db 07bf
000001e0: c1ad d6be d806 14bf 4e8d 33bf ec89 023e
000001f0: e406 c1be 99de 4e3f 55f7 f93f a1b7 d1bd
00000200: 20b5 e73e 8783 8f3f 0d98 dcbe ebf1 98be
00000210: 94b1 bb3f 0d06 5c3e 108e 91bd 9d08 9e3d
00000220: 2988 bbbd 4514 6a3f c0dc 453f 154c ff3e
00000230: c8ef 35bf 2e96 943e 3c33 003f 13e0 42be

seq.0.bias f4 [16]
-0.30614632 0.034138057 0.099113524 -0.010696518 -0.5962904 0.09810627 -0.009269533 0.030623594
0.029226502 -1.4542056 0.087731086 -0.7465778 -0.23182198 0.22153756 -2.2708435 0.010676258
00000000: 36bf 9cbe 59d4 0b3d 08fc ca3d 7340 2fbc
00000010: 7da6 18bf f1eb c83d 3ddf 17bc 55de fa3c
00000020: 6b6c ef3c 6923 babf 5bac b33d b91f 3fbf
00000030: be62 6dbe beda 623e 8055 11c0 79eb 2e3c

seq.3.weight f4 [32, 16, 3, 3]
0.055306874 0.047986306 -0.050102346 0.020165712 0.03251017 0.005046524 0.05026295 0.010968111
0.003800422 -0.25046766 0.27453676 -0.005207382 0.02282637 -0.030087708 0.33660623 0.19723903
-0.19626106 0.21305946 0.05959519 0.12440491 0.1302592 0.10179014 -0.16161111 0.007827658
0.10495873 -0.08156225 -0.09506045 -0.38126856 0.046633203 0.06935324 0.37254545 0.119439416
0.014019736 0.1998485 -0.15550753 0.084952 0.009565358 0.11638127 -0.01866182 0.084472306
-0.06082859 -0.044652853 0.16258942 -0.16678834 0.074392274 -0.09417838 0.275738 0.1510233
0.18913157 0.027929943 -0.36848906 -0.21398048 -0.08944679 -0.017063182 -0.06784517 0.024962995
0.08392322 0.3052122 0.09909029 0.062130835 0.0073000146 0.096402995 0.37977535 -0.03567777
0.03842361 -0.11265436 -0.09530495 0.001664824 0.04138197 0.11812199 0.018244479 -0.116246834
-0.029216388 -0.13660029 0.1560924 0.20525108 0.04560023 -0.079108074 0.090572655 -0.04703099
-0.12591551 -0.05151291 0.31149462 0.13403516 -0.02559233 0.19272757 0.036501367 -0.16147132
-0.09104453 -0.300378 -0.15161347 0.12611115 -0.15379232 -0.17587489 0.24089135 0.034781553
0.24793702 0.0061490824 -0.052018493 0.05038822 0.11273365 -0.017517047 0.12808187 0.0049600448
0.06961747 0.15064564 0.028608976 -0.10161973 -0.008655108 0.15730387 0.29167074 0.10874262
0.017291492 0.014676429 0.1378084 -0.12743658 0.15101883 0.07236649 0.074533 -0.08385211
0.051648937 -0.119354025 0.04164804 0.1264545 -0.17712052 -0.2971843 0.080656305 -0.08663965
-0.059976283 0.06058005 -0.057674564 -0.15501082 0.24583471 0.054765668 0.10739006 -0.23302932
0.06787966 -0.014737433 0.4794901 0.0013659811 -0.053114604 0.1935536 -0.13825373 0.18359897
0.05400256 -0.047027223 -0.017528854 -0.030630719 -0.05503888 -0.055217665 0.03503266 0.038389534
-0.068270735 0.4000359 0.22740556 -0.027545538 -0.018248614 -0.28907222 -0.15323207 -0.3391815
-0.23299699 -0.21581216 0.0041412944 -0.060758132 -0.070957564 0.076042 -0.12036716 -0.088959746
0.11754755 0.26505294 -0.09696546 0.50757504 0.016774971 0.043300003 -0.15313481 -0.35504678
-0.054627318 -0.01694307 0.05122108 -0.055482797 0.082408495 -4.0764036e-05 0.0146662025 0.16568919
-0.041350022 -0.040147737 0.08573071 -0.07727234 -0.047095608 -0.13010214 0.046453282 0.10766984
0.18291222 -0.12895012 -0.1815372 0.15824594 0.3127828 -0.03139484 0.4712614 -0.061687004
-0.024361096 -0.28242207 0.15745348 -0.4252612 -0.32388628 0.11258971 -0.3421234 -0.08407332
-0.011980716 -0.026521463 0.05757902 -0.0855004 0.0524671 0.11202325 -0.029409632 -0.10850254
0.22120227 -0.09253891 0.04051284 -0.12601142 -0.16058475 -0.14514275 0.018473186 0.26802152
-0.0065289466 -0.00914418 -0.15428632 0.0007857524 0.08874778 -0.047866747 0.004103396 0.106966786
0.052170407 0.013430106 0.2256941 0.038208947 -0.021232387 0.14953424 -0.15220608 -0.120165765
-0.1217694 0.18323953 -0.035289716 0.15798324 -0.08315481 -0.033813566 0.25849497 0.026861116
0.06055807 0.07872903 0.013004829 1.9967987e-07 0.20512785 -0.0655595 -0.18991923 -0.115667015
00000000: 7689 623d 4a8d 443d 1e38 4dbd 9032 a53c
00000010: 6229 053d 505d a53b 86e0 4d3d 98b3 333c
00000020: 8010 793b 4c3d 80be 1590 8c3e b0a2 aabb
00000030: 5efe ba3c 7f7a f6bc a757 ac3e 07f9 493e
00000040: a9f8 48be 422c 5a3e 161a 743d 00c8 fe3d
00000050: ab62 053e 5977 d03d 627d 25be 943f 003c
00000060: 9af4 d63d 1c0a a7bd 0eaf c2bd a235 c3be
00000070: 7502 3f3d 1209 8e3d 47be be3e a79c f43d
00000080: 09b3 653c 16a5 4c3e 5e3d 1fbe 50fb ad3d
00000090: 05b8 1c3c 4e59 ee3d ace0 98bc d1ff ac3d
000000a0: 6627 79bd e9e5 36bd d77d 263e 90ca 2abe
000000b0: fa5a 983d 98e0 c0bd 882d 8d3e daa5 1a3e
000000c0: b5ab 413e 56cd e43c 99aa bcbe b31d 5bbe
000000d0: e12f b7bd 16c8 8bbc 69f2 8abd 327f cc3c
000000e0: f0df ab3d c644 9c3e daef ca3d e77c 7e3d
000000f0: f634 ef3b ef6e c53d ea71 c23e da22 12bd
00000100: 1362 1d3d 54b7 e6bd 3e2f c3bd 3936 da3a
00000110: 2480 293d f1e9 f13d 7275 953c d212 eebd
00000120: 3557 efbc f2e0 0bbe b0d6 1f3e 572d 523e
00000130: 4fc7 3a3d 6a03 a2bd 287e b93d 91a3 40bd
00000140: ffef 00be 33ff 52bd 397c 9f3e 8340 093e
00000150: 02a7 d1bc 605a 453e 7582 153d bd58 25be
00000160: 8e75 babd 25cb 99be 9040 1bbe 4823 013e
00000170: bc7b 1dbe 8c18 34be 39ac 763e 1a77 0e3d
00000180: 34e3 7d3e 3e7e c93b 5811 55bd e163 4e3d
00000190: e6e0 e63d e97f 8fbc e527 033e df87 a23b
000001a0: 9b93 8e3d da42 1a3e 5f5d ea3c 011e d0bd
000001b0: 27ce 0dbc 4414 213e de55 953e 73b4 de3d
000001c0: e3a6 8d3c 6875 703c a51d 0d3e bc7e 02be
000001d0: aea4 1a3e e234 943d c2a4 983d a8ba abbd
000001e0: d68d 533d e26f f4bd 2397 2a3d 4a7d 013e
000001f0: 155f 35be 8a28 98be 222f a53d 2170 b1bd
00000200: b1a9 75bd c922 783d 2a3c 6cbd 28bb 1ebe
00000210: 18bc 7b3e f751 603d 52ef db3d 3d9f 6ebe
00000220: 7e04 8b3d 4675 71bc ba7f f53e b80a b33a
00000230: b38e 59bd ea32 463e 6392 0dbe 5e01 3c3e
00000240: ca31 5d3d 9e9f 40bd ac98 8fbc 46ed fabc
00000250: 7370 61bd eb2b 62bd 687e 0f3d 583e 1d3d
00000260: 87d1 8bbd 81d1 cc3e 01dd 683e 2ea7 e1bc
00000270: 1e7e 95bc 4601 94be dee8 1cbe 33a9 adbe
00000280: c396 6ebe ddfd 5cbe b2b3 873b 85dd 78bd
00000290: 3352 91bd e8bb 9b3d 0f83 f6bd 8730 b6bd
000002a0: c5bc f03d 05b5 873e d495 c6bd 70f0 013f
000002b0: aa6b 893c 585b 313d 5fcf 1cbe b1c8 b5be
000002c0: e5c0 5fbd 31cc 8abc 32cd 513d ee41 63bd
000002d0: c9c5 a83d 0dfa 2ab8 834a 703c 6daa 293e
000002e0: a45e 29bd f471 24bd 9593 af3d f640 9ebd
000002f0: 53e7 40bd 7f39 05be cc45 3e3d 0182 dc3d
00000300: 574d 3b3e 800b 04be e3e4 39be 390b 223e
00000310: 1125 a03e e097 00bd 2d49 f13e 83ab 7cbd
00000320: ec90 c7bc a099 90be 7c3b 213e d6bb d9be
00000330: 6cd4 a5be 6f95 e63d cc2a afbe a22e acbd
00000340: c44a 44bc 8a43 d9bc fad7 6b3d d51a afbd
00000350: bee7 563d 726c e53d 78ec f0bc 9436 debd
00000360: d982 623e 0a85 bdbd cbf0 253d 2309 01be
00000370: 5470 24be 4da0 14be 1455 973c 1e3a 893e
00000380: c6f0 d5bb 79d1 15bc 3cfd 1dbe f3fa 4d3a
00000390: 65c1 b53d ec0f 44bd c875 863b 6711 db3d
000003a0: a3b0 553d f309 5c3c 5b1c 673e fc80 1c3d
000003b0: 8bef adbc 811f 193e e9db 1bbe 7819 f6bd
000003c0: 3c62 f9bd 25a3 3b3e f38b 10bd 5cc6 213e
000003d0: 124d aabd 1880 0abd 7459 843e d80b dc3c
000003e0: bd0b 783d b03c a13d 3512 553c 9667 5634
000003f0: 090d 523e 0f44 86bd 307a 42be d4e2 ecbd

seq.3.bias f4 [32]
-0.78455126 -0.52941924 0.019330844 0.018826392 -0.30256164 0.08587191 -0.85660493 -0.15808955
0.052234955 0.01670323 0.06806783 -0.12836295 -0.17745481 0.0783107 0.07184189 -0.18197086
-0.6917836 0.09419582 -0.6341109 -0.3697954 0.34792447 0.021543182 0.005322632 0.006967858
0.0039884537 -0.058431618 0.17450395 -0.06094163 0.06281275 0.16767086 -0.019564489 -0.10716762
00000000: 5ad8 48bf 0588 07bf b85b 9e3c ce39 9a3c
00000010: 5ce9 9abe 9ddd af3d 764a 5bbf 3ae2 21be
00000020: 52f4 553d 36d5 883c 2567 8b3d 9471 03be
00000030: b7b6 35be 5c61 a03d d721 933d 9256 3abe
00000040: bb18 31bf bde9 c03d 1855 22bf d355 bdbe
00000050: 2823 b23e 547b b03c 7969 ae3b a152 e43b
00000060: 93b1 823b fe55 6fbd 2ab1 323e ee9d 79bd
00000070: f9a3 803d e9b1 2b3e b545 a0bc b27a dbbd

linear.weight f4 [3, 1536]
0.5092716 0.096313246 0.10072404 -0.0047783502 -0.011216741 0.010530846 0.016819729 -0.022673981
-0.01301597 0.0039368807 0.0065010632 -0.0069509232 -0.61896706 0.018855566 -0.034098953 0.013457394
0.007913042 0.008554584 -0.0022978005 0.0052217813 -0.0074506374 0.014683661 0.012513944 -0.007991975
0.16473196 -0.08923847 0.17683627 0.0119497925 -0.0033873415 -0.0076345685 -0.022312809 0.010702726
0.002102878 -0.014001547 -0.012213809 0.023836274 -0.45495412 0.25853452 -0.2922327 -0.020004438
0.02386706 0.021893028 0.02292742 -0.0016159769 0.003940796 -0.0010612258 0.011059077 0.011698938
-0.5098527 0.14031641 -0.5394123 -0.017397497 -0.025179716 -0.020508302 0.0018846359 0.009903155
0.005448371 -0.00073036196 -0.0032037308 0.008231374 -0.40830106 -0.008798584 0.21214423 0.0068670916
-0.004204795 0.014123496 0.0021120491 0.009635132 0.0034820447 -0.0037732744 -5.562868e-05 -0.015876962
0.91507936 -0.34768263 -0.16337746 0.00103783 0.013029525 -0.002154481 0.0043456974 0.014117464
0.020967629 -0.009619687 -0.014469923 -2.5560174e-05 -0.21074376 0.16258125 0.24618134 0.008819069
0.00089536764 0.010916187 -0.017132288 -0.011111966 0.0075087254 0.0046865246 -0.0066274633 -0.012480256
-0.8015428 0.28152126 0.049811907 0.055868845 0.020152971 0.016207954 0.0068901675 0.024534527
-0.0021539074 0.0104837725 0.018660158 -0.0065795886 -0.082487725 -0.3932721 0.13275635 -0.0011662404
0.0017249873 -0.009967603 -0.002241433 0.006689112 -0.019936033 -0.0086072255 0.009392834 -0.010510803
0.21387519 -0.075515784 0.2532324 -0.02679464 0.005809937 0.01993726 -0.02038069 -0.02050574
-0.014916515 -0.020603187 -0.0067788837 0.010272758 -0.21511774 0.52966547 -0.10046139 0.010765133
-0.01960557 -0.011802362 -0.0062719523 0.014959949 -0.02028897 0.02473871 0.0059470534 0.007876847
-0.052190244 -0.11257854 0.20803474 0.05524571 0.059384856 -0.09435826 0.09636473 -0.013563838
0.006813473 0.057044514 0.0915166 0.047522895 0.53251076 0.4009356 0.033087224 -0.014009208
0.054247696 -0.15979202 0.09941841 0.051813032 0.01764852 0.006397642 0.027194554 0.0394868
-1.0415794 -0.24504848 -0.1616463 0.051282894 -0.068211615 -0.023056025 -0.077349044 0.035440765
0.03003065 -0.04819699 -0.017405525 -0.0030503147 0.028871533 0.08333927 -0.1705649 0.027494388
-0.004877831 0.08775694 -0.078877814 -0.003090411 -0.0013910972 -0.055231355 -0.009238368 0.03230419
-0.051117226 -0.190951 -0.064190246 0.10526268 0.022372495 -0.005271817 -0.05261742 0.06284569
-0.006601914 -0.026906326 0.005643211 -0.003572389 -0.06455755 0.11196426 -0.13282028 0.058139935
0.054871876 0.0063003893 -0.07587451 0.027024304 0.096395046 -0.0045795743 0.01850628 -0.008086069
-0.40668303 -0.13850068 0.29810598 0.04695486 0.04914167 -0.010655376 -0.015343959 0.046559796
0.058791462 0.0122401435 0.04646186 0.031393185 -0.20820047 0.14349078 -0.09195474 0.07675196
0.06392688 -0.0030465797 0.0014560268 -0.03639247 -0.004164319 0.035330378 -0.0108425 -0.015965333
0.5065121 -0.12169216 0.16402945 0.01472442 -0.008404408 -0.03567753 -0.083356984 -0.01789314
0.031751633 0.014671329 0.046301544 0.015947405 -0.44456443 -0.15960495 0.0941583 0.021416366
00000000: a05f 023f e13f c53d 6848 ce3d b593 9cbb
00000010: 6cc6 37bc 9289 2c3c 87c9 893c c9be b9bc
00000020: ef40 55bc f300 813b df06 d53b 92c4 e3bb
00000030: a074 1ebf fd76 9a3c 58ab 0bbd 677c 5c3c
00000040: b4a5 013c 8728 0c3c b296 16bb 7a1b ab3b
00000050: 7a24 f4bb bd93 703c 4907 4d3c c6f0 02bc
00000060: 7faf 283e a9c2 b6bd 9114 353e 10c9 433c
00000070: 29fe 5dbb 672b fabb 5ac9 b6bc 7d5a 2f3c
00000080: 70d0 093b bf66 65bc 6e1c 48bc 4a44 c33c
00000090: bfef e8be a35e 843e 869f 95be 59e0 a3bc
000000a0: da84 c33c 0259 b33c 49d2 bb3c 30cf d3ba
000000b0: cb21 813b d418 8bba 2231 353c e7ac 3f3c
000000c0: b585 02bf 1baf 0f3e ed16 0abf 3285 8ebc
000000d0: b145 cebc 0701 a8bc e305 f73a d840 223c
000000e0: 4088 b23b c375 3fba aff5 51bb e3dc 063c
000000f0: d60c d1be f027 10bc 563c 593e 5705 e13b
00000100: 61c8 89bb 3c66 673c 4e6a 0a3b acdc 1d3c
00000110: 0433 643b 0a49 77bb d752 69b8 6710 82bc
00000120: a442 6a3f 7503 b2be 6c4c 27be cc07 883a
00000130: ca79 553c 3132 0dbb 5a66 8e3b f04c 673c
00000140: 4ec4 ab3c e49b 1dbc 4213 6dbc 0e6a d6b7
00000150: 36cd 57be b37b 263e f616 7c3e db7d 103c
00000160: 1bb7 6a3a cfd9 323c 0359 8cbc f70e 36bc
00000170: c10b f63b 6b91 993b 312b d9bb fd79 4cbc
00000180: e931 4dbf 8e23 903e 9207 4c3d bbd6 643d
00000190: d817 a53c 8bc6 843c eac6 e13b a2fc c83c
000001a0: 9228 0dbb 21c4 2b3c 30dd 983c 9799 d7bb
000001b0: 53ef a8bd f65a c9be 48f1 073e 89dc 98ba
000001c0: f818 e23a 284f 23bc 01e5 12bb 5730 db3b
000001d0: e450 a3bc 5205 0dbc 67e4 193c 8135 2cbc
000001e0: 1902 5b3e 05a8 9abd ada7 813e 6f80 dbbc
000001f0: 4961 be3b 7753 a33c 68f5 a6bc a7fb a7bc
00000200: 6664 74bc 04c8 a8bc 6621 debb 124f 283c
00000210: d347 5cbe 2898 073f b4be cdbd 3e60 303c
00000220: dc9b a0bc b25e 41bc f384 cdbb 931a 753c
00000230: 0e35 a6bc d6a8 ca3c 80df c23b e40d 013c
00000240: 70c5 55bd 948f e6bd 0f07 553e 5349 623d
00000250: 893d 733d e73e c1bd df5a c53d dc3a 5ebc
00000260: 8e43 df3b 82a7 693d 0e6d bb3d 5ea7 423d
00000270: a052 083f 6e47 cd3e 7886 073d e186 65bc
00000280: d532 5e3d 85a0 23be e19b cb3d e739 543d
00000290: a193 903c 50a3 d13b 1dc7 de3c e9bc 213d
000002a0: 7952 85bf fded 7abe 9c86 25be 030e 523d
000002b0: 88b2 8bbd fddf bcbc 2d69 9ebd 562a 113d
000002c0: d602 f63c 356a 45bd 0896 8ebc cae7 47bb
000002d0: fe83 ec3c c7ad aa3d 91a8 2ebe e93b e13c
000002e0: 36d6 9fbb e9b9 b33d b18a a1bd 7e88 4abb
000002f0: 7a55 b6ba 463a 62bd 865c 17bc 6651 043d
00000300: 4c60 51bd a988 43be 2d76 83bd f693 d73d
00000310: 8646 b73c 35bf acbb 5d85 57bd 3eb5 803d
00000320: de54 d8bb a86a dcbc afea b83b be1e 6abb
00000330: c036 84bd 854d e53d 0a02 08be 2424 6e3d
00000340: 55c1 603d 7f73 ce3b 1864 9bbd 1362 dd3c
00000350: c46a c53d 4110 96bb 7b9a 973c 6e7b 04bc
00000360: c238 d0be 1fd3 0dbe 59a1 983e bd53 403d
00000370: c748 493d e393 2ebc 3b65 7bbc 7cb5 3e3d
00000380: 51cf 703d e28a 483c cb4e 3e3d 2496 003d
00000390: 8132 55be 3fef 123e c452 bcbd 2230 9d3d
000003a0: 19ec 823d 20a9 47bb 27d8 be3a 4510 15bd
000003b0: d774 88bb 96b6 103d bea4 31bc bbc9 82bc
000003c0: c7aa 013f bd39 f9bd 56f7 273e b23e 713c
000003d0: a4b2 09bc 9a22 12bd 11b7 aabd a294 92bc
000003e0: 000e 023d 0460 703c b0a6 3d3d 22a4 823c
000003f0: f39d e3be 7b6f 23be 11d6 c03d 6071 af3c

linear.bias f4 [3]
1.345606 1.5208749 0.7290924
00000000: d13c ac3f 07ac c23f cda5 3a3f
