PositioningWith80211azFingerprintingAndDeepLearningExample/models/eucloss.pth (torch, 6871 bytes, 6 tensors)

seq.0.weight f4 [20, 48]
000000 61 d9 56 3f ca 7d a9 40 88 85 3d 40 de 6c ed 3f
       0.83925444 5.296605 2.961275 1.8548849
000010 ec c3 8a 3f d1 fa 47 3f 90 7a d7 be db 36 63 be
       1.0841041 0.7811709 -0.42085695 -0.22188894
000020 ec 92 fa 3b f4 fa 0f bf 8a d4 b5 be 8d 11 10 3e
       0.007646909 -0.562423 -0.35513717 0.14069195
000030 c4 fc 5a bf a1 1e 86 3f 19 89 b5 3e 77 a1 d8 3e
       -0.8554194 1.0478097 0.3545616 0.42310688
000040 e1 78 21 be 77 f9 15 be 6c 0e 09 3f 34 ea 83 bf
       -0.15768768 -0.14645945 0.5353763 -1.0305848
000050 37 78 8c bf c6 d8 5d be 19 29 b3 be a4 26 86 3f
       -1.0974187 -0.21664724 -0.34992293 1.0480542
000060 dc 6c 21 bf 20 33 83 be 1b 02 7c bf 98 dd 1a be
       -0.6305673 -0.25624943 -0.9844071 -0.15123594
000070 2f 5e 04 bf 60 af a6 3d 9f a2 46 3d 0b 79 ca 3e
       -0.5170621 0.08138919 0.04849493 0.39545473
000080 7b e7 ba bd 68 02 88 3e c5 b9 ae bd 77 21 8b 3f
       -0.09126183 0.26564336 -0.085315265 1.0869588
000090 b8 f6 4e be f4 c5 21 bb ed c6 5f 3d eb 23 e5 3e
       -0.20211303 -0.002468464 0.05463307 0.44753966
0000a0 27 32 ba 3e 3d 20 fc bc 26 da 74 be 65 db 73 bf
       0.36366388 -0.030777091 -0.23911342 -0.95256644
0000b0 d6 24 2f be 77 55 1c be f3 72 11 3f 62 c8 80 bf
       -0.17103896 -0.15266977 0.56816024 -1.0061152
0000c0 88 61 a2 3c a1 a3 10 be f0 2b ea 3c 6c 05 c5 bc
       0.019821897 -0.1412492 0.028585404 -0.024050437
0000d0 cc 43 9d bd 70 c8 05 bc b6 0b 9c bd 14 59 e6 3d
       -0.07678947 -0.008165464 -0.07619421 0.11247459
0000e0 e6 34 88 bd 3d 75 cb bd a9 ca f4 bd 28 1d a3 3d
       -0.066507146 -0.09934471 -0.11952717 0.079645455
0000f0 50 b9 fa 3c 6c 8c e7 bd 34 b1 db bd fa d7 d7 bd
       0.030605942 -0.1130608 -0.10727158 -0.10539241
000100 c8 c1 fc bd 0b 4e 8e bd a2 83 94 bd 08 e9 76 3d
       -0.12341648 -0.06948479 -0.072516695 0.06028083
000110 74 9c 72 bd 80 be ef 3b 88 2f 87 3d b4 af 6c bd
       -0.059231237 0.0073164105 0.06600863 -0.05778475
000120 d0 71 3f bc 00 07 e9 bc c4 02 6c 3d fe aa 96 3d
       -0.01168485 -0.02844572 0.057619825 0.07356833
000130 84 b6 60 bd 4c e5 aa 3d a0 9d 43 3d 7e 22 db bd
       -0.05486156 0.08344516 0.047757745 -0.10699938
000140 7c 58 2e 3d 18 e3 8f bc 9a 5d ae bd 38 3d 53 3d
       0.042564854 -0.017564341 -0.08513947 0.051572055
000150 bc ce 51 bd f0 9b 87 bd f8 ec 79 3d 4c d8 33 3d
       -0.051222548 -0.066215396 0.061017007 0.04390745
000160 98 57 92 3c 53 8a 0c be 58 5f c9 3d 30 47 db bc
       0.017864034 -0.13724642 0.098326385 -0.026767343
000170 a0 42 a1 3d 54 5c 0b 3e 44 b2 8d 3d 58 35 8b bc
       0.07874036 0.13609439 0.06918767 -0.01699321
000180 fa 10 99 bd 55 1c 0c 3e e6 2d a7 bc 07 78 a4 bd
       -0.07473941 0.13682683 -0.020407628 -0.08030706
000190 58 b7 a5 3d 7a c0 04 3d b6 40 e7 3c b1 24 e9 3d
       0.08091611 0.032410122 0.028229099 0.113839515
0001a0 84 87 e4 3d 95 a0 65 3c ad 36 1b 3a 0b 40 bc 3d
       0.1115866 0.0140153365 0.0005920928 0.09191903
0001b0 47 34 26 3d 17 57 11 be dd ae 4a 3d 8c 53 ea bd
       0.0405772 -0.14193378 0.04948317 -0.114417166
0001c0 62 5e 2a 3d e4 cd 5e bd 36 fb b8 bd 1a 55 54 bc
       0.041593917 -0.05439557 -0.0903229 -0.012959743
0001d0 75 05 a9 bd f4 de a5 3d c0 32 78 bd f4 ef 59 bd
       -0.08252994 0.080991656 -0.060595274 -0.053207353
0001e0 8f 2a e3 3d c8 86 9e bd 7b 99 0f bd 98 c9 8e bc
       0.11092102 -0.07740551 -0.03505848 -0.017430112
0001f0 22 cc b7 bc 8a 65 aa bd 7a 0a 91 bd 30 03 a3 3d
       -0.022436205 -0.08320148 -0.07082076 0.07959592
000200 0a c6 a8 bd 07 ac 40 bd 56 2b 0e be c2 ab d0 3d
       -0.08240898 -0.047039058 -0.13883719 0.1018901
000210 26 ec 97 3d 3a 67 0b bd 98 90 df 3d a5 b2 8e 3d
       0.074180886 -0.03403399 0.10916251 0.069676675
000220 35 d2 c7 3d c0 86 bb bd 59 19 50 bd 86 f1 af bd
       0.09756891 -0.09156561 -0.050805423 -0.08590989
000230 46 1b e0 bd 7a 37 97 3d 85 4e b2 3b 18 fa 7c 3b
       -0.10942702 0.07383628 0.005441489 0.0038601216
000240 c0 1f 74 bd d1 e7 ff bd 89 af c2 bd 06 87 eb bd
       -0.05960059 -0.12495387 -0.09506137 -0.11500363
000250 6e d5 73 bd c0 14 8e 3b b8 fc a8 bd d2 23 6a bd
       -0.059529714 0.0043359697 -0.08251327 -0.057163067
000260 52 07 ab bd f1 b0 8b bd 72 de b9 bd 9e fd cf 3d
       -0.083510056 -0.06820858 -0.09075631 0.101557955
000270 9a 2e d6 bd 24 a1 7e 3d d0 55 c6 bc 58 cf 4b 3d
       -0.10458107 0.062165394 -0.02421084 0.049758285
000280 8c b8 c5 3d ac bd a0 bc 98 af 06 3d 96 d9 64 bd
       0.0965434 -0.019621693 0.032882303 -0.05587157
000290 4c 8b 8e 3d 58 49 ea 3d e6 b8 6b bd 48 7c 31 3d
       0.069601625 0.114397705 -0.05754938 0.043331414
0002a0 20 a4 ca 3c 20 01 55 3d 5a 23 ee bd 08 37 68 bd
       0.024736464 0.052003026 -0.116278365 -0.056693107
0002b0 50 42 d3 bc 60 86 11 3e 08 00 f1 3c d0 26 e6 3c
       -0.025788456 0.14211416 0.02941896 0.02809468
0002c0 a6 f1 c1 3d 9c 73 9e bd 44 0c 36 3d 48 fb 90 bc
       0.09469919 -0.077368945 0.04444529 -0.017697945
0002d0 90 8e 23 bd 18 2e 98 3c 60 22 b4 3b b2 ee a3 bd
       -0.03993088 0.018576667 0.005497262 -0.08004512
0002e0 94 35 8d bd 82 ec 0d 3e 9e 01 92 3d e3 d2 81 bd
       -0.06894985 0.13859752 0.07129215 -0.063390516
0002f0 4b 35 12 be a2 8c 90 bd 6a 49 d5 3d 0a 96 03 3e
       -0.14278142 -0.070580736 0.10414393 0.12850204
000300 d5 f3 13 be 74 6a 4b bd 2a 54 9b 3d 7c 8f c7 3d
       -0.14448483 -0.04966207 0.075844124 0.09744164
000310 98 1d fd bd 16 57 df bd 35 e0 62 3d bc d4 a3 bd
       -0.1235916 -0.10905282 0.0553896 -0.0799956
000320 32 fa e5 bd ae 70 ed 3d 24 eb fb bd 47 96 88 bd
       -0.112293616 0.115937576 -0.12300709 -0.06669288
000330 60 ef de bd 9d 89 9a bd a1 ab fb 3c 3d ab 41 bc
       -0.10885501 -0.07545779 0.030721487 -0.011820612
000340 b6 52 44 bd 75 4d 9b 3d c1 d0 d5 3d 88 27 ff bd
       -0.04793044 0.07583133 0.10440207 -0.12458712
000350 eb 08 fa 3d b1 d0 da 3c 4e 95 d8 3c 04 d2 6a 3d
       0.12208732 0.02671084 0.026438382 0.057329193
000360 bc d4 3f 3d 4b 36 17 3c bd 5a ec 3d f9 3e 5c bc
       0.04683374 0.009229253 0.115407445 -0.013442748
000370 d5 8c ce 3d a7 56 36 bd 81 09 87 3c 9c 83 90 3d
       0.10085455 -0.044516232 0.016484024 0.070563525
000380 dc e8 c3 bd 8b 67 0b be c2 2c 8f bd e9 9e 61 3d
       -0.09565899 -0.13613717 -0.06990959 0.05508319
000390 11 5f 81 3d ae 40 82 3d 56 10 f5 bd e3 e0 60 3d
       0.063169606 0.06359993 -0.119660065 0.05490197
0003a0 59 2a e5 bd 73 11 01 3d 98 6a 97 bd 4c 96 03 3e
       -0.11189718 0.03151078 -0.07393378 0.12850302
0003b0 3b 14 fd bd a1 0e 10 3e 97 ce b9 3d da 6e c4 bd
       -0.12357374 0.1406808 0.09072607 -0.09591456
0003c0 3a cb 00 be e2 2a dc bd 98 d2 e4 3d cc 8b ca bc
       -0.12577525 -0.10750367 0.1117298 -0.024724863
0003d0 6d c0 b8 bd 56 e2 cf bd 88 59 3f 3d 90 78 a0 3d
       -0.09021077 -0.10150592 0.046716243 0.078354955
0003e0 f8 42 2e bd 0c 56 65 bd 8c 44 6e bd 24 94 df 3d
       -0.042544335 -0.055990264 -0.05817084 0.109169275
0003f0 9d c8 83 bd 30 23 00 3e 38 98 c2 3c 8a e9 97 3d
       -0.06434748 0.12513423 0.023754224 0.07417591

seq.0.bias f4 [20]
000000 c3 c3 a3 bf 15 a5 0e be 78 d5 88 bd d6 0f a9 bd
       -1.2794117 -0.13930161 -0.06681341 -0.082549736
000010 de fb 2f 3d 77 37 92 bd 4e 8e 3a 3f 06 3c a3 bd
       0.04296481 -0.07139485 0.7287339 -0.07970433
000020 c8 6f 63 bd 56 c8 a9 3f 00 b7 72 3b c8 1b cf bd
       -0.055526525 1.3264263 0.0037035346 -0.10112721
000030 58 38 97 3e ba 2d 4a 3d 17 00 8d 3f 51 4d 50 3f
       0.29535174 0.049360014 1.1015652 0.81367975
000040 15 20 f5 bd 5a de b9 bd 67 15 2a c0 ba d3 07 be
       -0.1196901 -0.09075613 -2.6575563 -0.13264361

seq.2.weight f4 [10, 20]
000000 92 7b 6e 3f 18 1c 58 bd aa fa f5 3d 2c f9 e0 3d
       0.93157303 -0.052761167 0.12010701 0.10985026
000010 f2 84 58 be d4 ae 3b 3e 02 08 bd be 9e ca 87 be
       -0.21144465 0.1832841 -0.36920172 -0.26521772
000020 bf 5c 23 be b4 94 05 3e 52 79 3b be e0 bf 7d 3d
       -0.15953349 0.13045007 -0.18307999 0.061950564
000030 e4 9d a6 3f 48 d9 34 3e 10 3b 0f be 11 d3 bb 3f
       1.3016934 0.17661011 -0.13987374 1.4673787
000040 f2 62 fb bd ec 32 b3 bd 79 e6 9f 3e 5d c0 20 be
       -0.12274732 -0.08749947 0.31230524 -0.15698381
000050 28 e0 57 3f 90 3d 55 bc 19 38 f6 3d 70 cd 73 bc
       0.8432641 -0.013015166 0.120224185 -0.014880523
000060 ba b2 ea bd ee a2 93 bd b1 24 d4 3f 82 83 cb 3d
       -0.11459871 -0.07208811 1.6573697 0.099371925
000070 8c c9 27 be 1f 15 82 bf 59 7e 53 be 6c 54 52 3e
       -0.16385478 -1.0162696 -0.20653667 0.20540017
000080 7c 58 2f 3e f6 a2 22 bd 18 1f ce 3d 37 99 41 3f
       0.17123598 -0.039706193 0.100645244 0.7562441
000090 06 61 43 be e2 39 0e be 16 dc e0 bd 19 ce 2b be
       -0.1907998 -0.13889268 -0.10979478 -0.16777839
0000a0 c8 11 91 3f 83 c0 33 be b9 25 8f bd ee 3b 07 be
       1.1333551 -0.17553906 -0.06989617 -0.13206455
0000b0 20 8c a5 bd 71 e1 17 be d9 7b 40 bf 09 49 5c bd
       -0.08083367 -0.14832093 -0.75188977 -0.05378059
0000c0 9f a7 19 be 9c f1 c3 bf 98 58 19 3e 42 1d 1f 3e
       -0.15005349 -1.5308108 0.14975202 0.15538505
0000d0 3e f5 81 3e 12 f1 40 be 40 50 35 3e 3d b6 76 3d
       0.25382417 -0.18841961 0.17706394 0.06023239
0000e0 3c c9 b3 3d f0 f0 b6 bc 28 e3 7e bf fd 3c 21 3e
       0.08778617 -0.022331685 -0.9956536 0.15745921
0000f0 78 2a bd bd 60 74 17 3d c8 47 01 3e 88 53 43 be
       -0.09236616 0.03697622 0.12625039 -0.19074833
000100 54 4a aa 3d 46 b0 26 be 28 4b 98 bd 52 56 25 be
       0.08314958 -0.1627818 -0.0743621 -0.1614621
000110 f9 a2 3a be 78 5e 3a 3d 10 db 3f bd f4 54 d4 bd
       -0.18226232 0.04550025 -0.046839774 -0.10367766
000120 12 43 c8 bd 24 3b 50 be c8 c6 21 be 30 b0 a3 bc
       -0.09778418 -0.2033506 -0.15798485 -0.019981474
000130 f4 48 8e 3d 38 3a 05 be 5c 64 25 bd 28 99 6f bd
       0.069475085 -0.1301049 -0.040378913 -0.05849567
000140 02 a4 65 be 6a 1c 54 3e e8 cf 5f be 8e d6 9c bd
       -0.22425845 0.20713964 -0.21856654 -0.076581106
000150 dd f6 95 bd 40 d8 b3 bb 96 33 9f 3f 67 c4 be be
       -0.07322476 -0.0054884255 1.2437618 -0.37259218
000160 d4 eb c2 3d e7 f2 ca bf 18 ad 85 3d 5f 30 50 be
       0.09517637 -1.5855378 0.06527156 -0.20330952
000170 3e 35 1d bf 54 36 3e 3e 0b 2c af 3f f6 5c 93 be
       -0.61409366 0.18575412 1.3685316 -0.2878186
000180 da 09 2d 3e 58 83 97 3d a0 39 90 3f 5f 25 a5 bc
       0.1689829 0.07398099 1.1267586 -0.020159421
000190 97 5f a8 3d fe 1f fd bd 44 0e a1 3d 26 41 bc bd
       0.08221357 -0.12359618 0.07864049 -0.091921136
0001a0 09 26 26 be 28 88 ba bd 18 b1 6b 3f 87 5a 04 bf
       -0.16225447 -0.09108001 0.920671 -0.51700634
0001b0 cf 8d b6 3d da 79 22 be 08 30 3e be a9 c7 f0 bd
       0.089137666 -0.15866795 -0.1857301 -0.11756832
0001c0 07 b1 9a 3e 55 7b e6 3d b1 92 3f 3f 88 e4 0d 3f
       0.30213186 0.112539925 0.7483321 0.55426836
0001d0 fc 94 59 3e 2a 41 5c be 20 1b e3 3f 77 aa 4d bc
       0.2124824 -0.21509233 1.7742653 -0.012552849
0001e0 30 08 6c 3f 1a a9 23 be 20 d8 1d 3e d0 69 02 3c
       0.92199993 -0.15982476 0.15414476 0.007959798
0001f0 10 59 b6 3d 98 6d 3d 3d 39 57 0f bf 28 0c 26 3f
       0.08903706 0.046247095 -0.55992466 0.648623
000200 52 99 10 be ea 2f 32 3d 38 70 3e be 5a b9 4f be
       -0.14120987 0.043502726 -0.18597496 -0.2028555
000210 8c 47 47 3f 1a e1 fa 3c bb 6b 62 3f f0 5f 8d 3e
       0.77843547 0.030624915 0.88445634 0.27612257
000220 9a fd 08 3e 90 c0 7c 3c 58 7b b2 3d ba 84 41 be
       0.13377991 0.01542677 0.08714932 -0.18898287
000230 55 b1 5d be 00 04 c3 b9 a0 59 45 3e f0 f7 28 3d
       -0.21649678 -0.0003719628 0.1927247 0.041252077
000240 64 80 27 3e 8c 6a 22 be 64 1f a9 bd fa 57 a3 bd
       0.16357571 -0.15860957 -0.082579404 -0.079757646
000250 be 47 55 3e cb b0 3a be 94 69 d6 3d 34 13 c7 3d
       0.20828149 -0.18231504 0.10469356 0.097204596
000260 a0 fb 32 bd 02 37 0b be fc f6 68 bd 24 0e ff 3d
       -0.043697 -0.13595203 -0.056876168 0.12453869
000270 f4 dd e2 3d 38 b8 8c 3d ec 29 1a bd 58 42 f9 bc
       0.110774904 0.068710744 -0.037637636 -0.030427143
000280 76 05 39 be a2 fc af bd a6 2b 12 3e 74 71 0b be
       -0.1806849 -0.08593108 0.14274463 -0.13617498
000290 0c d0 fb 3d e8 1a db 3d e4 9b 07 3e 90 55 60 be
       0.12295541 0.10698491 0.13243061 -0.2190764
0002a0 fa 40 4c 3e ff 40 02 be 90 03 49 3d e4 2a 2c be
       0.19946662 -0.12720107 0.049075663 -0.16813236
0002b0 77 1c c8 3d 50 01 bc 3d 8a 12 43 be 72 19 d9 3d
       0.09771054 0.09179938 -0.19050041 0.106005564
0002c0 79 a6 64 be 40 48 ea 3d cb b1 56 be f0 c6 3c 3e
       -0.2232913 0.11439562 -0.2096626 0.18435264
0002d0 20 8e 8e 3e 9c 53 f3 3d a5 ff 8b bc 9a 0a b3 bd
       0.27842808 0.118811816 -0.017089674 -0.087422565
0002e0 6c c2 31 be d3 6a 1a be 97 6d 9c c0 e0 6c 80 3e
       -0.17359322 -0.15079813 -4.8883777 0.25083065
0002f0 42 18 43 3e 9f ef 0e c0 b8 d1 0a be 98 50 a1 3c
       0.19052222 -2.2333753 -0.13556564 0.01969175
000300 19 4b 93 be 7c aa 42 3e 48 6b 58 be 25 11 a0 be
       -0.28768232 0.19010347 -0.21134675 -0.3126308
000310 2a b2 25 3e 88 df 21 be db b8 38 3e df b2 3c 3e
       0.16181245 -0.15807927 0.18039267 0.18427609

seq.2.bias f4 [10]
000000 99 e6 04 c0 38 91 e0 bf 1c d1 c8 3f b3 48 2b be
       -2.0765746 -1.7544317 1.5688815 -0.16726951
000010 b4 65 2f 3e ff fc 1a 3d 2f 21 0d bf 10 73 35 be
       0.1712864 0.037838932 -0.5512876 -0.17719674
000020 2d 13 5d be fb 4d aa 3f
       -0.21589346 1.3305048

seq.4.weight f4 [3, 10]
000000 86 e3 a8 bf 2e 9e de 3e ef 94 02 3f 1c ad c0 3d
       -1.3194435 0.43480057 0.51008505 0.09408018
000010 49 62 5d bf ac 56 1a 3f 18 96 37 3f e8 b1 5d bd
       -0.86478096 0.602885 0.717134 -0.054124743
000020 46 7f 94 3e fd 25 a2 be 88 93 e0 3c 6c 55 45 bf
       0.29003352 -0.31669608 0.027414098 -0.7708347
000030 44 09 a1 3f a2 ef 6e 3e ab d0 fd bc c3 fa 54 3f
       1.2580953 0.233336 -0.03098329 0.8319513
000040 ff db 53 bf 10 49 84 bc 37 05 29 be 63 2f c3 bf
       -0.8275756 -0.01614812 -0.16505896 -1.5248836
000050 ad 2e 7e be f0 fd 89 3e 87 1c 8e 3d 52 8d 76 3e
       -0.24822493 0.2695155 0.06939035 0.24077347
000060 57 90 c3 bd cb fc 98 3d 4e d5 ff bd 3e ce 3c 3e
       -0.09549015 0.074700914 -0.124918565 0.1843805
000070 62 4f 3c 3e 47 90 86 bc
       0.18389657 -0.016426219

seq.4.bias f4 [3]
000000 f0 1c e2 3f 30 91 13 40 da 44 d7 3f
       1.7665081 2.3057365 1.6817887
