PositioningWith80211azFingerprintingAndDeepLearningExample/models/eucloss_batchnorm.pth (torch, 9781 bytes, 14 tensors)

seq.0.weight f4 [20, 48]
000000 c3 1e b3 bd e6 84 7b bc 24 ac f7 bf 93 dd 01 bf
       -0.08746102 -0.01535151 -1.9349408 -0.5072872
000010 f5 e2 41 3f 22 b5 1c bf fb 68 ca bc 69 dd 26 bd
       0.75736934 -0.61213887 -0.024708262 -0.040738497
000020 f5 b5 8c be 5e c0 b7 3e 5f a9 8c bd 11 ee c0 3d
       -0.27482572 0.35888952 -0.068682425 0.094204076
000030 c5 d6 5e 3e c5 2f 04 3e ab e1 36 3e 2b ca cf 3f
       0.21761616 0.12908848 0.17859523 1.6233572
000040 fc 1a 2c bf 38 20 12 3f 76 12 f0 be 79 9a bf be
       -0.67228675 0.5708041 -0.46889085 -0.3742254
000050 ac 72 68 bb 9e 5c 19 bd 09 84 87 3d 5e ab 04 bf
       -0.003546874 -0.037441842 0.066169806 -0.51823986
000060 b8 97 73 be 28 81 99 3f b8 8e e8 be 4d c6 c1 3d
       -0.23788345 1.199254 -0.45421386 0.09461651
000070 f8 0c f1 3e 7a c1 b8 3c 4f da 56 3f 38 09 65 bd
       0.47080207 0.022553194 0.8392686 -0.055916995
000080 f5 5d 21 be 76 46 59 3e 1a 19 92 be 04 9f 21 be
       -0.15758498 0.21218285 -0.28534776 -0.15783316
000090 48 94 e2 3e 69 d6 69 3f 38 76 9c 3e 12 ec be 3e
       0.44253755 0.9134279 0.30558944 0.37289482
0000a0 80 c1 34 3d 76 45 05 bf 42 8a fc 3e 42 29 51 bf
       0.04412985 -0.52059114 0.49324232 -0.8170358
0000b0 9d 7c 04 bf 79 3b 1f 3f 76 a8 7b 3f 77 51 03 3e
       -0.51752645 0.62200123 0.98303926 0.12824045
0000c0 41 f0 aa 3d 90 33 8c 3f 1f 16 81 c0 46 df 25 c0
       0.08346606 1.0953236 -4.0339503 -2.5917525
0000d0 04 3a 10 bf 15 1a a3 be 72 8e 65 3d 3c 49 44 3e
       -0.56338525 -0.31855837 0.05604405 0.19168562
0000e0 f3 ec 04 3f 3a af 9c be 83 a4 1c 3e d5 ce 0f 3f
       0.51924056 -0.30602437 0.15297131 0.56174976
0000f0 20 63 02 be af b2 c6 be 09 9c 0c bf 89 65 fa bd
       -0.12733126 -0.388082 -0.5492559 -0.122263975
000100 bf b3 0c bf e8 6e 2a 3f 90 38 02 be 22 9f ae 3d
       -0.5496177 0.6657548 -0.1271689 0.08526446
000110 ab 4d f7 3e ab 74 d3 3d 60 92 75 bf 54 f4 1c 3e
       0.48301443 0.10324987 -0.95926476 0.15327579
000120 19 87 c3 bf fe 96 17 be 05 47 96 be 40 c4 aa 3d
       -1.5275604 -0.14803693 -0.2935106 0.08338213
000130 c9 15 f3 3e 7d 01 df 3e 92 11 e8 be 17 cc a4 3e
       0.47477558 0.43555823 -0.45325905 0.32186958
000140 e1 c2 84 bf b4 bb 10 3e 2c ba ae 3d c4 65 ae be
       -1.0371972 0.14134103 0.08531603 -0.34062016
000150 fa 65 e1 be 5b 17 5e bf d8 d1 d4 3e b2 26 07 be
       -0.44023114 -0.8675439 0.41566348 -0.13198355
000160 27 f5 a5 be 34 b1 07 bf 1b 4b dc be 18 d0 89 be
       -0.324136 -0.53004766 -0.4302605 -0.26916575
000170 f9 7e 52 3e 72 0c 9a be a8 56 0c bf e4 0a 66 3f
       0.20556249 -0.3008762 -0.54819727 0.8986037
000180 9d 86 55 3e 62 ec 89 3f f9 8a ab be 42 a8 a7 bf
       0.20852132 1.0775263 -0.33504465 -1.3098223
000190 bf 58 33 bf 32 f1 02 bf 37 a2 80 3e cc d7 43 be
       -0.7005729 -0.51149285 0.2512376 -0.19125289
0001a0 5f d6 4b bf 7c 70 82 be 10 75 e3 be ac 20 d2 be
       -0.7962398 -0.25476444 -0.4442525 -0.41040552
0001b0 b6 30 1e bf dd 60 9e 3e 85 bd 21 be fd 50 c7 3e
       -0.61793077 0.30933276 -0.15794952 0.38928977
0001c0 6f 4d df 3b 32 6d 0d 3f ad be 4e bf 75 43 35 3d
       0.0068146507 0.55244744 -0.807597 0.044253785
0001d0 21 70 3b bd 9a f0 8a be 55 4d f4 3d 3d 8f 61 3e
       -0.04576123 -0.2713669 0.119288124 0.22027297
0001e0 ad 72 3e be eb b8 5c bf e5 57 00 3e 42 57 34 3e
       -0.18598433 -0.8621966 0.12533529 0.17611411
0001f0 5d 6b 64 be 9a 07 25 3f 49 7d ee be 4b dd d8 be
       -0.22306581 0.64464724 -0.4657996 -0.42356333
000200 b8 ac c6 bd a2 93 c1 3e a6 f0 36 3f 3c 92 34 3e
       -0.09700912 0.37807947 0.7146095 0.17633909
000210 5a ba 00 3f 45 2b 82 3f 1c 6a 37 3e 10 35 69 3f
       0.5028435 1.0169455 0.17911571 0.9109659
000220 e7 9b 17 bf a1 58 db 3e f5 b5 51 be b4 b4 c0 3e
       -0.59222263 0.42841056 -0.20479567 0.37637866
000230 91 b5 d6 3c 0a e4 30 3f 80 47 f6 3e c3 35 c3 bf
       0.026209624 0.6909796 0.48101425 -1.5250782
000240 0a cd 9d be 4e 61 d7 be 00 ce a3 3b 4e 90 d2 3e
       -0.30820495 -0.42066425 0.0049989223 0.4112572
000250 95 fa 70 bf bf da 89 be c3 86 a2 bc e0 6c 84 bd
       -0.9413236 -0.26924703 -0.01983965 -0.06466079
000260 79 b2 09 bf 91 19 08 3f 56 dd e0 3e b0 c9 3f 3e
       -0.5378795 0.5316401 0.43918866 0.18729281
000270 27 fd 06 bf 47 10 8f be a6 80 23 bf af 6f e5 3e
       -0.5273003 -0.27942106 -0.63868177 0.4481177
000280 04 d7 0e be 7f f1 74 3e 01 a4 26 bf 33 68 47 be
       -0.1394921 0.23920248 -0.65094 -0.19473343
000290 c5 fe 04 3f 65 7d 2a bf d5 40 30 3f 1b 9a 8b bf
       0.5195125 -0.66597587 0.68848926 -1.0906404
0002a0 bd 5b 21 bf 4f 9f d0 be 1a 24 87 bf 27 79 1b bf
       -0.63030607 -0.40746543 -1.0557892 -0.6073174
0002b0 d6 01 bd bc 71 01 8b 3e 87 46 ca be e8 4c 44 3d
       -0.023072165 0.27149537 -0.39506933 0.047924906
0002c0 5f 1b d9 3e c6 33 96 bd 57 78 0e 3f 4f 7a a2 bb
       0.42403695 -0.07334094 0.55652374 -0.004958428
0002d0 f2 5e 1c 3f 04 ef f2 3e c0 07 a0 3e 2e ab 5e 3f
       0.61082375 0.4744798 0.31255913 0.8697995
0002e0 19 55 50 bf c8 16 80 bf 31 27 39 bf 2b b2 04 bf
       -0.8137985 -1.0006952 -0.72325426 -0.5183436
0002f0 45 3b be 3e 7d f6 0e 3f 95 46 7b 3e f8 6c 1a 3f
       0.37154594 0.5584486 0.24538644 0.60322523
000300 61 6f 04 3e c2 62 51 c0 63 c5 58 3f 85 21 f9 3e
       0.12933113 -3.2716527 0.8467619 0.48658386
000310 2e a0 00 c0 50 4f 3a bf 95 cc 61 3f b4 d8 27 bf
       -2.0097766 -0.7277727 0.8820279 -0.6556504
000320 c1 ad 95 3f 7d 06 05 3f 5d 12 40 bf b2 d8 82 bf
       1.169365 0.51963025 -0.7502802 -1.022238
000330 ad 39 4a bf 5a fe c9 3d b0 cb 51 3f 4c ad 84 3f
       -0.78994256 0.09862967 0.8195143 1.0365386
000340 6e af 79 3f 8d 15 1d 3e a8 08 48 bf 41 80 9e be
       0.9753331 0.15340252 -0.7813821 -0.30957225
000350 a8 5c 04 bf 81 e0 b6 3e 6c f2 f5 3e 17 6d 4f 3d
       -0.5170388 0.35718158 0.48036516 0.050641146
000360 e1 7e 1b 3f f4 08 1e 3f 10 8d 05 bf 33 7b e5 bc
       0.60740477 0.6173241 -0.5216837 -0.028012848
000370 3d c9 65 be 00 be bf be ef 21 1d 3e d3 32 11 3e
       -0.22440048 -0.37449646 0.15344976 0.14179544
000380 6f b7 26 be 7d cc 34 be 65 d2 00 bf bf 7c ef 3e
       -0.16280912 -0.17656131 -0.50321037 0.4677486
000390 5b 14 35 be 27 ee 7a 3e 22 eb 24 bf 0a 0a 20 bf
       -0.17683546 0.2450491 -0.64421284 -0.6251532
0003a0 2c ec b7 3e f2 b2 04 bf 31 6a 22 3f 3d c0 03 3e
       0.35922372 -0.5183555 0.63443285 0.12866302
0003b0 8c ac 28 3f 36 22 1d 3d 30 d7 01 bf a0 3e 09 bd
       0.65888286 0.038362704 -0.50718975 -0.03350699
0003c0 3e 9b 0e be 1c 90 24 be 71 5e b3 be b3 9a 23 bf
       -0.13926408 -0.16070598 -0.3503299 -0.6390793
0003d0 98 89 f9 bd a2 0e 4a 3f 50 cb 26 3f f8 46 05 40
       -0.12184447 0.7892858 0.6515398 2.0824566
0003e0 64 be d1 3e 71 21 8c 3e 75 6e 03 bf c0 df 05 3f
       0.4096557 0.27369264 -0.5134042 0.5229454
0003f0 05 a3 88 bf ce 5d 5c 3f 4f 64 5d bf ed 9c c4 be
       -1.067475 0.86080635 -0.86481184 -0.38400975

seq.0.bias f4 [20]
000000 91 63 d5 3d cd 30 cd 3d e3 12 11 3e ea 05 98 3d
       0.104193814 0.10019074 0.14167361 0.07423003
000010 c4 f8 2a bd 51 0b 95 3d 60 c2 ec 3d 54 77 06 be
       -0.041741148 0.07277549 0.115605116 -0.13131458
000020 cf c7 c8 3d 08 00 ee bd 58 da 0e 3e 17 53 8e 3d
       0.098037355 -0.116211 0.13950479 0.06949442
000030 2c 47 ad 3d d2 9d b6 3a 8d ad 9e 3d 1c 32 d6 bc
       0.084608406 0.0013932532 0.07747946 -0.02614694
000040 39 0a 73 3c 0a 05 d3 3d 7c 4f e8 3d d4 ac e0 bc
       0.01483398 0.103036955 0.113432854 -0.02742616

seq.1.weight f4 [20]
000000 28 33 b8 3f e4 34 9b 3f c7 51 8b 3f 65 54 ed 3f
       1.4390612 1.2125516 1.0884331 1.854138
000010 97 5f 16 40 fc ef c6 3f 36 c1 fb 3f 71 c3 e9 3f
       2.3495843 1.5541987 1.9668338 1.8262769
000020 3c d7 b8 3f db f7 93 3f e9 17 af 3f 88 0f 86 3f
       1.4440684 1.1560014 1.3679172 1.047349
000030 61 ef 83 3f f7 68 e0 3f b8 67 01 40 5a df dc 3f
       1.0307428 1.7532033 2.0219555 1.7255661
000040 2a ff a6 3f a2 75 b6 3f 09 76 08 40 2c 13 0c 40
       1.304662 1.4254649 2.1322043 2.1886702

seq.1.bias f4 [20]
000000 99 0c 25 bd 39 e4 2b 3f 37 a0 11 3f 09 22 c8 be
       -0.040295217 0.67145115 0.56885093 -0.39088467
000010 ab 99 96 3d 13 d6 b1 bf 4d 16 85 bf 99 13 07 40
       0.073535286 -1.3893455 -1.0397431 2.1105711
000020 62 a3 6a 3f f2 f0 80 3d 9b 29 f0 3e 54 88 b3 bd
       0.9165555 0.06295957 0.46906742 -0.08766237
000030 59 f8 1a bf ee f9 5f bf bc a6 81 bf c0 98 1c bf
       -0.605352 -0.8749074 -1.0129008 -0.6117058
000040 ac 0c 9a 3e ed a4 b6 3f 47 7d 51 bf 3b b2 88 3f
       0.30087793 1.4269081 -0.81831783 1.0679392

seq.1.running_mean f4 [20]
000000 ef cc 1a 3d 82 e5 61 bc 80 8f bc 3e ee 99 ab be
       0.037793096 -0.013787629 0.36828232 -0.33515877
000010 15 a5 3e be 2f bd 15 be 12 61 cc 3e c5 b3 7c 3c
       -0.18617661 -0.14622949 0.3991781 0.01542372
000020 94 d4 8c be ff 9d 7d be 69 56 d0 3e bc 39 8b 3e
       -0.27505934 -0.24767302 0.40690926 0.27192485
000030 ef 47 69 3e a1 aa ab bd 27 ee 95 bd 95 16 0a be
       0.22781347 -0.08382154 -0.073208146 -0.13485177
000040 9b 6d 54 be f8 0f bb be 65 13 2f 3e ea 78 5d be
       -0.20744936 -0.3653562 0.17097242 -0.21628156

seq.1.running_var f4 [20]
000000 f9 48 6b 3b 92 f4 51 3c 9a c2 01 3c ad fb 10 3c
       0.003590165 0.012814658 0.007919932 0.008849067
000010 28 c1 6a 3d c4 64 8a 3b fe 94 1b 3c 5b 5a 5d 3d
       0.057313114 0.004223438 0.009495972 0.054041248
000020 4f 6e 26 3d 4f db 36 3b da 6b 84 3c f7 3c 88 3b
       0.040632542 0.0027901714 0.016164709 0.004157658
000030 c6 86 15 3b 1a bf 33 3c 78 c2 68 3c 2e 4b 0d 3c
       0.0022815927 0.010970855 0.014206521 0.008623881
000040 3d b6 a7 3c 48 78 e2 3c a9 fc 0c 3c dd 83 d1 3d
       0.02047264 0.027645245 0.008605161 0.10230229

seq.3.weight f4 [10, 20]
000000 07 54 61 3e 7a 41 ea be f6 be 05 3f 34 9d 12 3f
       0.2200471 -0.4575308 0.5224451 0.5727112
000010 fd d8 2f 3f 64 e2 80 3e d9 1c 3e be 58 4b f4 be
       0.6869047 0.25172722 -0.18565692 -0.47713733
000020 ba 76 68 bf 32 50 46 be 22 01 85 bc 49 9b 21 be
       -0.9080616 -0.1936653 -0.016235892 -0.15781893
000030 53 8d 86 3e 2f 9a 94 bf c5 01 e3 be 42 24 7c bf
       0.26279697 -1.1609553 -0.44337288 -0.98492825
000040 8a 8f 19 bf 72 44 b7 bf 6f 5a 16 bf 52 fd bf 3f
       -0.5998465 -1.4317763 -0.5873174 1.4999182
000050 6e 92 7a 3d db a8 ae be d7 d1 d2 be d9 f1 f7 bd
       0.061174802 -0.34113201 -0.4117572 -0.12106676
000060 6b 15 0b 3e 11 ab 3a 3d 8b 9a 12 3f 16 1d 2d bf
       0.13582389 0.045573298 0.57267064 -0.67622507
000070 07 d0 ac 3d b6 17 57 3e 12 87 6a 3e 3f b6 5f 3e
       0.084381156 0.21005139 0.22903088 0.21846865
000080 48 cc 8d be c6 7f fa 3d cb 05 cb bd d2 d0 4e 3c
       -0.27694917 0.12231402 -0.09913214 0.012623029
000090 8e 19 3c 3f 7a d7 6c be 46 43 c2 bf 37 43 07 3f
       0.73476493 -0.23129073 -1.517678 0.52836937
0000a0 af a7 82 be 65 78 32 bf f9 3e 78 3f b4 60 a8 3e
       -0.25518557 -0.6971496 0.9697109 0.3288628
0000b0 16 d4 83 bd 83 32 34 bf 71 2c 68 3f fa 58 a5 be
       -0.064369366 -0.70389575 0.9069281 -0.32294446
0000c0 36 4b b4 be f4 a5 57 3f b1 36 cb 3e d9 76 0d 3f
       -0.3521363 0.842376 0.39690164 0.5525947
0000d0 1a 90 c9 3d 34 dc 3c 3e 2b c5 9e be f2 c8 3e be
       0.09841938 0.18443376 -0.31009802 -0.18631342
0000e0 b8 4d bf 3f ae 79 94 bf 85 0e a0 be 04 62 83 bd
       1.4945593 -1.1599634 -0.31261078 -0.06415179
0000f0 ed 8e ad 3f c7 ab f7 be 88 52 e3 3e 4b 80 36 3d
       1.3559242 -0.48373243 0.44398904 0.044555943
000100 04 43 03 bf ae 24 ff be f2 f1 f3 3e 6a e3 6d 3f
       -0.5127413 -0.49832672 0.47645527 0.9292513
000110 87 f0 5e be 64 68 0c bf c4 7b 19 bf dd 39 79 bf
       -0.21771441 -0.5484679 -0.59954476 -0.9735392
000120 72 62 c9 3e 04 a2 4c be 3b 5b 1a bf 92 d1 9d 3d
       0.3933292 -0.19983679 -0.60295457 0.07705988
000130 73 36 73 bf c7 69 b9 bf 83 cb 2c 3f 56 37 34 bf
       -0.9500496 -1.4485406 0.67498034 -0.70396936
000140 a8 00 01 bd 9d ff 24 3e 95 a4 fc be ed 2e a9 3e
       -0.031494766 0.16113134 -0.49344316 0.33043614
000150 66 23 01 3f fc 54 36 3f c9 8c 9b 3e c3 6b 9c bf
       0.5044464 0.71223426 0.30380848 -1.2220386
000160 97 3c 99 bf 6c 96 06 bf 17 1d cb bf c0 f7 06 3d
       -1.1971616 -0.52573276 -1.5868253 0.032951117
000170 18 84 c1 3b 1a 66 8e bf f9 89 0d bf 7f 8d de be
       0.0059056394 -1.1124909 -0.55288655 -0.43467328
000180 81 c2 8d be b2 d5 7a bf 0d 22 78 3c 0f 23 13 bf
       -0.27687457 -0.97982323 0.015144837 -0.5747537
000190 62 4f 91 bf b1 e2 87 bf f5 ed 90 3e c4 d6 07 c0
       -1.1352351 -1.0616056 0.28306547 -2.1224833
0001a0 1e 53 b0 3f dd d6 69 3f 75 f1 d5 be 2b 41 7b bf
       1.3775365 0.9134348 -0.4178578 -0.98146313
0001b0 5e 14 0e 3f 83 f4 c3 be 4f 60 21 bf 0c 83 10 bf
       0.5549983 -0.38272485 -0.6303758 -0.5644996
0001c0 3c a2 94 bf c1 fe d6 be 9c df 43 bf a9 11 a2 bf
       -1.161201 -0.41991237 -0.76513076 -1.266164
0001d0 fa fc 4f be 53 06 52 be 2d 97 94 bf a5 09 68 3e
       -0.20311347 -0.20510225 -1.1608635 0.22659929
0001e0 60 72 27 bf 38 70 a2 be 87 9f 4f bf f9 44 61 3e
       -0.654089 -0.3172624 -0.81102794 0.21998967
0001f0 43 90 08 c0 4d 74 22 3f 65 70 97 3f 12 c5 6f 3f
       -2.133805 0.6345871 1.1831175 0.9366008
000200 20 06 fb be c5 26 b5 3d 09 28 95 3e ed 55 c6 bd
       -0.4902811 0.08845285 0.29132107 -0.09684358
000210 99 77 c0 be d7 49 35 bf 1c 6c 3f bf eb cb c5 3e
       -0.37591246 -0.70815796 -0.74774337 0.3863214
000220 85 d2 09 3d ff dc 8f 3e 3a 9f 4f bf a4 e3 11 c0
       0.033648033 0.28098294 -0.81102335 -2.279519
000230 ca d2 ba 3e ea f0 b5 3e 18 ec ed be 52 5a 92 3e
       0.36488944 0.35535365 -0.46469188 0.28584534
000240 ef ab 35 bf 28 3a 5a 3e 6e 17 af 3d 9c a4 2a c0
       -0.70965475 0.21311247 0.08549391 -2.666297
000250 d5 22 31 3f 99 53 00 bf 00 36 07 be be 3d 98 be
       0.69193774 -0.5012756 -0.13204193 -0.29734606
000260 86 f0 02 3f e5 28 3e be 7e 49 76 bf 31 6b 95 bd
       0.5114826 -0.18570288 -0.9620589 -0.07295836
000270 c2 7e 5b bf 61 5d 45 bf c1 39 a1 be f8 f8 88 3f
       -0.8574029 -0.7709561 -0.31489375 1.0700979
000280 c0 07 ea 3e 08 da 2d 3e 69 0e b8 bf 72 56 38 3f
       0.45709038 0.16977704 -1.4379398 0.72006905
000290 f9 df 9b bf 91 3e 3e 3e b0 40 a6 3f 70 55 07 bf
       -1.2177726 0.18578555 1.2988491 -0.5286474
0002a0 67 41 da bf f5 4c a4 be c2 05 45 bf 39 f0 5f be
       -1.7051209 -0.32089964 -0.7696191 -0.21868981
0002b0 e7 85 cc 3e 24 f9 6d bf 41 0d 9a bf 1e 82 2c bd
       0.3994591 -0.92958283 -1.2035295 -0.042116277
0002c0 98 99 e7 bf 2f 30 2e 3f b8 d0 66 be 1c c1 68 bf
       -1.8093748 0.6804227 -0.22540557 -0.9091966
0002d0 ca ae fa bd 05 5b 9c bf 3d bb 71 bf 07 7f 8c 3e
       -0.122403696 -1.2215277 -0.9442633 0.27440664
0002e0 26 ae 8f be a6 77 3b 3f b2 05 0c bf 88 d2 6a bf
       -0.28062552 0.73229444 -0.5469619 -0.91727495
0002f0 b4 6e 85 bd 77 3b 8b bf 8c 42 67 bf 0e 92 59 bf
       -0.065152556 -1.0877522 -0.9033592 -0.84988487
000300 1f 76 fe be a1 91 aa 3e 63 d0 ba bd 2b 08 6f bf
       -0.49699494 0.3331423 -0.09121778 -0.9337184
000310 f7 78 32 3f 56 e8 3c 3f e4 6e b9 3f a6 1c 6d 3f
       0.6971583 0.73792017 1.4486966 0.9262184

seq.3.bias f4 [10]
000000 30 50 bc 3d 00 3f cb 3c 20 81 7e bd 24 6b 0b bd
       0.09194982 0.024810314 -0.062134862 -0.034037724
000010 08 4f 90 3d fb c1 b1 3c 4e 10 2f 3e 57 21 0c bb
       0.07046324 0.021698942 0.17096063 -0.0021382177
000020 e8 bb 7d 3d 8a 1c 28 3e
       0.06194678 0.16417137

seq.4.weight f4 [10]
000000 b1 42 e9 3e da 38 4c 3f bd 06 23 3f 1c 11 57 3f
       0.45558694 0.7977425 0.63682157 0.8401048
000010 41 94 38 3f d6 b0 92 3f 2f 6d 44 3f 02 d6 06 3f
       0.7210122 1.1460216 0.767291 0.526703
000020 8b b6 49 3f a7 52 25 3f
       0.78794163 0.6457924

seq.4.bias f4 [10]
000000 31 0c c0 3e fe 47 7c bf 27 91 99 bc db fc 2e be
       0.375093 -0.9854735 -0.018745972 -0.17088644
000010 3a f8 bb bd 32 97 fe be fc fb 10 3e cb ee ba 3e
       -0.09178205 -0.49724728 0.14158624 0.3651031
000020 40 67 40 bd fc b7 02 3e
       -0.046973467 0.12765497

seq.4.running_mean f4 [10]
000000 34 d1 2c c0 83 fd 93 bf 74 17 8f bf 43 6e 36 c0
       -2.7002687 -1.1561741 -1.1179032 -2.8504798
000010 d8 2f 06 c1 0f 46 b0 c0 c2 5d 8a c0 4d 71 d2 c0
       -8.386681 -5.508552 -4.323945 -6.5763307
000020 d0 71 e5 c0 ea d0 11 c0
       -7.170143 -2.278376

seq.4.running_var f4 [10]
000000 fa e0 fa 40 66 1f 80 40 93 13 5a 41 f6 71 25 41
       7.839963 4.003833 13.629779 10.3403225
000010 77 f3 2c 41 07 77 f3 40 f6 f3 7a 41 9b 0f f6 40
       10.80944 7.6082797 15.684561 7.689405
000020 51 e2 38 41 d6 1d 14 41
       11.555253 9.257284

seq.6.weight f4 [3, 10]
000000 a7 95 3c 3f a9 ec c4 3e 07 8e f3 3e dd 67 02 be
       0.7366585 0.38461807 0.47569296 -0.12734933
000010 76 be f7 bd eb ee 90 3d 22 5f 0a 3f 34 b3 60 3f
       -0.120968744 0.0707682 0.5405141 0.8777344
000020 1c 0a 37 bf 43 53 0a 3e eb 38 87 3e db 9d 53 3d
       -0.714998 0.13508324 0.26410612 0.051664215
000030 a8 25 0f 3f 90 a4 36 3f 6e 29 2a 3f 58 70 24 3f
       0.55916834 0.7134485 0.66469467 0.6423392
000040 39 c5 25 3f d4 c2 bc 3d fb 5b ad 3e 80 ef 26 3f
       0.6475406 0.09216848 0.33859238 0.652092
000050 5d 71 5d bc 67 eb e3 be 99 38 23 3d c5 01 02 bd
       -0.013515797 -0.44515535 0.039848898 -0.03173997
000060 50 d3 0a 3e ba cd e4 bc dc 2a 6d bc 77 6d 0a 3e
       0.13557172 -0.02793013 -0.0144755505 0.1351832
000070 7a 81 0d be 04 59 47 bd
       -0.13818923 -0.048668876

seq.6.bias f4 [3]
000000 df 9d c7 3f 00 7f 0b 40 f8 68 e2 3f
       1.5595053 2.1796265 1.7688284
