PositioningWith80211azFingerprintingAndDeepLearningExample/models/squaredeucloss.pth (torch, 6871 bytes, 6 tensors)

seq.0.weight f4 [20, 48]
4.4463406 -2.660268 -1.8190249 -1.0687773 -0.60915464 -0.13677303 0.4500663 0.7171298
-0.59571785 0.37049928 1.2260725 0.7124858 -0.5186639 1.0379424 1.054271 -0.5430617
1.1057526 0.8929154 -0.6344031 -0.36000964 -0.87848914 0.44272724 -0.45318663 0.65890205
-0.4267579 -1.5860744 0.088363335 -0.3682843 0.29753885 -0.324991 -1.5695666 -0.44691744
-0.51116437 0.18875794 -0.041919556 0.6090412 -0.34497297 -0.4836267 0.43013296 1.2347234
0.020346096 -0.8182558 -0.25937018 -0.10810274 -1.082991 -0.31956568 0.38024804 0.013862848
-0.06542622 0.111922495 -0.07561473 0.103955925 -0.0013995094 -0.09768554 -0.08764936 -0.05067686
0.022409175 -0.013106195 0.040423654 -0.024484891 -0.047470782 -0.1261132 0.1326025 -0.04728285
0.051924527 -0.041757338 -0.10799789 0.05864278 -0.07415322 0.13436358 0.014788841 0.04390373
0.05602327 -0.037528872 0.08471523 0.10369094 -0.010943198 -0.14267723 0.037851118 0.07757145
0.016585024 0.02987263 -0.030377483 -0.031937096 0.113942616 -0.013867068 -0.12671922 0.03212366
0.09762132 -0.0810996 0.08743452 -0.0021496061 -0.09980826 0.0104392655 -0.08557745 0.11670477
-0.14995526 -0.010549452 -0.07196491 0.03974126 -0.122747086 0.06975785 -0.07460206 -0.118998766
0.07590321 -0.08891521 -0.10398055 -0.01667814 -0.10321408 -0.029644938 -0.11102148 0.04858662
0.13950603 -0.10556138 0.10284279 0.06465387 -0.09849432 -0.13421384 0.015965478 -0.110271566
-0.07490387 -0.13353057 0.058891885 0.12912795 0.020805463 -0.09608088 -0.03396613 0.13995187
0.046950873 0.05200046 0.098572835 -0.09397372 0.13577035 0.12387264 0.0012650987 0.09549768
-0.016233224 -0.09915676 0.07810565 -0.02436012 0.018381733 -0.024784876 0.022262175 -0.14280769
-0.402024 -0.0092188325 0.07517944 0.07534972 0.02962301 0.1275743 -0.029435035 0.07083647
-0.029260252 0.1330264 0.039877933 0.044288203 -0.034294832 0.11177783 0.050695445 0.07732825
0.056806836 0.12174988 -0.0907205 -0.046490178 0.10849862 0.03457516 0.0461231 -0.08841831
0.08560921 0.08971189 0.10916088 0.11963888 0.09603073 -0.13740452 -0.12927707 -0.14537735
0.10822889 -0.021957407 -0.022805229 0.008359629 0.076838695 0.0646405 -0.12287446 -0.057906125
0.107913025 0.020985413 -0.14609736 -0.14243121 -0.06912739 0.10233026 -0.06830699 0.023490705
-0.3943069 0.06910882 -0.012031948 -0.0139509505 -0.11378898 0.01895714 -0.12747051 -0.03929382
0.019931223 0.036714476 -0.13985126 -0.06903344 0.052329905 0.10302761 -0.09906925 0.08323304
0.10903894 0.11989251 -0.13605076 0.06754583 -0.033778008 0.039064128 0.11050037 0.080209136
-0.03981551 -0.14512084 -0.078041375 0.05295277 -0.0069001256 0.12005127 0.05235882 -0.028341372
-0.14694579 -0.054642 0.09524998 0.029427005 -0.11959537 -0.060133588 -0.10829662 -0.13892707
-0.060256727 -0.116327345 -0.12272098 0.023318818 -0.06773418 -0.13688743 0.01346019 0.11859863
-0.06664528 0.021415964 0.095859155 0.08675282 -0.08790469 0.12157491 0.0467913 -0.038833022
0.12711674 -0.05976937 -0.064736575 -0.043351285 -0.08991322 -0.0047563314 -0.057942018 -0.1395428
00000000: 6c48 8e40 d541 2ac0 cfd5 e8bf b2cd 88bf
00000010: 8ff1 1bbf 3b0e 0cbe 176f e63e d295 373f
00000020: f780 18bf 15b2 bd3e f2ef 9c3f 7865 363f
00000030: 28c7 04bf 4cdb 843f 5af2 863f 1706 0bbf
00000040: 4d89 8d3f 1b96 643f 3e68 22bf 2f53 b8be
00000050: aae4 60bf 25ad e23e 1408 e8be cead 283f
00000060: 0380 dabe 7c04 cbbf d6f7 b43d c38f bcbe
00000070: 0357 983e 3865 a6be 8fe7 c8bf 5dd2 e4be
00000080: abdb 02bf c349 413e d7b3 2bbd 20ea 1b3f
00000090: 4ca0 b0be eb9d f7be 633a dc3e 6b0b 9e3f
000000a0: dbac a63c 3679 51bf 2bcc 84be f864 ddbd
000000b0: 739f 8abf 1d9e a3be dfaf c23e 0021 633c
000000c0: 2ffe 85bd 9f37 e53d e5db 9abd d8e6 d43d
000000d0: be6f b7ba 5b0f c8bd 8281 b3bd 8a92 4fbd
000000e0: 7293 b73c 5ebb 56bc 4693 253d 8a94 c8bc
000000f0: b970 42bd d223 01be f3c8 073e a9ab 41bd
00000100: d0ae 543d be09 2bbd ff2d ddbd 6933 703d
00000110: a5dd 97bd 9b96 093e e54c 723c 66d4 333d
00000120: a878 653d e0b7 19bd 2e7f ad3d ea5b d43d
00000130: 194b 33bc fb19 12be c609 1b3d c8dd 9e3d
00000140: 51dd 873c 72b7 f43c 33da f8bc 79d0 02bd
00000150: bf5a e93d b332 63bc afc2 01be 1994 033d
00000160: b0ed c73d 8c17 a6bd df10 b33d 68e0 0cbb
00000170: 4668 ccbd 7409 2b3c 3b43 afbd e902 ef3d
00000180: df8d 19be 9cd7 2cbc 5762 93bd bbc7 223d
00000190: d362 fbbd 34dd 8e3d f7c8 98bd a0b5 f3bd
000001a0: 2473 9b3d 2d19 b6bd c1f3 d4bd 98a0 88bc
000001b0: e761 d3bd f1d9 f2bc 3b5f e3bd c302 473d
000001c0: abda 0e3e 9130 d8bd 3e9f d23d 4069 843d
000001d0: 64b7 c9bd 5a6f 09be 09ca 823c 0fd6 e1bd
000001e0: 3367 99bd 3dbc 08be 9e38 713d 1e3a 043e
000001f0: 3870 aa3c 0dc6 c4bd 1220 0bbd 8b4f 0f3e
00000200: 8f4f 403d 6ffe 543d 8ee0 c93d 4b75 c0bd
00000210: 6207 0b3e f0b0 fd3d abd1 a53a 4a94 c33d
00000220: 8afb 84bc b312 cbbd dbf5 9f3d e08e c7bc
00000230: 4a95 963c a709 cbbc 2a5f b63c 2e3c 12be
00000240: 17d6 cdbe 960a 17bc aef7 993d f450 9a3d
00000250: f4ab f23c d6a2 023e be21 f1bc b612 913d
00000260: 32b3 efbc 1338 083e 0b57 233d 8c67 353d
00000270: bd78 0cbd c6eb e43d 07a6 4f3d 465e 9e3d
00000280: 49ae 683d 0058 f93d abcb b9bd 7c6c 3ebd
00000290: 8634 de3d af9e 0d3d 93eb 3c3d a914 b5bd
000002a0: e253 af3d deba b73d bd8f df3d 3b05 f53d
000002b0: c2ab c43d c5b3 0cbe 3561 04be cddd 14be
000002c0: 1ca7 dd3d 05e0 b3bc 08d2 babc d3f6 083c
000002d0: 9b5d 9d3d 3d62 843d 9ba5 fbbd f92e 6dbd
000002e0: 8101 dd3d 9ae9 ab3c 8c9a 15be 7dd9 11be
000002f0: a992 8dbd 8792 d13d 89e4 8bbd 946f c03c
00000300: 98e2 c9be ed88 8d3d a621 45bc 8792 64bc
00000310: 320a e9bd 014c 9b3c a187 02be 8ef2 20bd
00000320: ce46 a33c eb61 163d 2b35 0fbe 6761 8dbd
00000330: e257 563d 2400 d33d d2e4 cabd 1676 aa3d
00000340: cf4f df3d 348a f53d e450 0bbe 7855 8a3d
00000350: cf5a 0abd b501 203d 054e e23d b044 a43d
00000360: 9715 23bd 8f9a 14be 28d4 9fbd 01e5 583d
00000370: 731a e2bb 71dd f53d 3476 563d 2a2c e8bc
00000380: f578 16be 4ad0 5fbd 6c12 c33d e710 f13c
00000390: 6bee f4bd a34e 76bd 9eca ddbd e642 0ebe
000003a0: c2cf 76bd 083d eebd 2355 fbbd 1b07 bf3c
000003b0: 38b8 8abd 382c 0cbe 2188 5c3c d7e3 f23d
000003c0: 527d 88bd 8870 af3c ce51 c43d 76ab b13d
000003d0: 6007 b4bd 44fc f83d 3ca8 3f3d 600f 1fbd
000003e0: e42a 023e bad0 74bd 9c94 84bd 1e91 31bd
000003f0: 6c24 b8bd 00db 9bbb 9c54 6dbd 4fe4 0ebe

seq.0.bias f4 [20]
-5.6763687 -0.19957803 -0.13034998 -0.42793173 -0.3839359 -0.08405326 0.012928009 3.1902318
1.9456929 -0.08725758 -0.24321222 -0.1717755 -0.043069936 -0.13961864 -0.16211253 -0.083122976
-0.20035787 -0.3296586 0.036002174 -0.1127092
00000000: d0a4 b5c0 2f5e 4cbe 777a 05be de19 dbbe
00000010: 3f93 c4be 1e24 acbd 00d0 533c c22c 4c40
00000020: 770c f93f 1ab4 b2bd a00c 79be ebe5 2fbe
00000030: 1a6a 30bd 30f8 0ebe d400 26be 613c aabd
00000040: 9d2a 4dbe 03c9 a8be 0477 133d 15d4 e6bd

seq.2.weight f4 [10, 20]
-1.2381089 -0.045922726 0.1025956 -0.12711583 -0.055543944 0.18054458 -0.031411678 0.25564986
-0.839466 0.17820975 0.21694621 0.036028147 0.043035746 0.08870289 -0.13907401 -0.056518033
0.083231986 0.099493146 -0.15201241 -0.02968277 0.02515305 0.018989991 -0.025501614 -0.356542
-0.71350825 0.080806494 0.06289497 -0.20651753 -0.046994314 -0.0055923467 -0.046711754 0.21570328
-0.015130401 0.15346487 -0.3578307 0.02871102 -0.34226447 -0.27620327 0.05356574 -0.38689548
-0.22980312 -0.21540396 -0.07169629 -0.07561555 -0.17008385 0.11049783 -0.21726248 -0.04630439
0.21285208 -0.05095101 0.11324838 -0.0076669306 -0.1332961 -0.09711278 0.0059383754 -0.17460197
0.09792536 -0.11985719 0.19331613 0.043086268 -1.232963 -0.105954625 -0.027281841 -0.28024438
-0.4611213 0.21317142 -0.06655051 0.12902561 -0.108026184 0.15466115 0.017793665 0.13967802
0.1345514 -0.14935502 -0.21876575 -0.042593595 -0.22216976 -0.23720974 -0.04535024 -0.19506311
-1.0305321 -0.052527905 -0.17812677 -0.027753279 -0.2162214 -0.19503367 0.09684482 1.1242104
-0.51981115 -0.14825055 -0.0773941 -0.021803409 0.1551623 0.16162154 0.08087066 -0.13974614
-0.026085272 -0.08452146 -0.047565356 -0.20920175 -0.09554567 0.22247198 -0.12551025 0.1675937
0.035798457 -0.11638639 -0.14038944 -0.16414586 0.06943738 -0.09458669 -0.17348923 0.0696809
-0.13096964 0.12841973 -0.21509053 -0.099201016 0.025943946 -0.1824472 -0.15814526 0.033552285
1.1288129 -0.014520991 -0.40617028 -0.29552856 -0.45147112 0.063088864 0.060025424 -0.96450394
-0.18838406 0.0081444215 -0.12263321 0.087591626 0.16255376 -0.182953 -0.22138076 -0.013541036
-0.11770949 -0.4318572 -0.19313565 -0.10256877 -0.121208355 -0.03979574 -0.14530388 -0.030475542
0.15272534 0.13105476 0.13589671 -0.19888309 0.051002055 0.030149221 -0.14058037 0.008361623
-0.17571045 0.0009958893 -0.013033614 0.0008369386 0.070770174 -0.2136768 0.18289822 -0.12662235
-0.10016151 -0.19996655 -0.12333095 0.02429226 0.14619014 -0.19574247 0.21596727 0.060318626
0.077634625 0.10208446 -0.21930367 -0.15870902 -0.20402278 -0.18180151 -0.15627766 -0.0012715459
-0.035258785 -0.14237297 -0.08562453 -0.06763293 0.92740047 0.13267054 0.018168371 -0.002297612
-0.0012190866 0.14385545 0.1972796 -1.1217066 0.787353 0.14518404 -0.0900771 -0.112628534
-0.22093615 -0.13156386 -0.19632235 0.18251951 -0.15897335 -0.15817437 0.20604476 -0.043684985
00000000: 5a7a 9ebf 7819 3cbd a41d d23d a72a 02be
00000010: 0c82 63bd aee0 383e 88a9 00bd 8ae4 823e
00000020: 3ee7 56bf 9e7c 363e 2627 5e3e 4092 133d
00000030: 4046 303d dca9 b53d 6b69 0ebe 747f 67bd
00000040: 8875 aa3d 10c3 cb3d 24a9 1bbe 4829 f3bc
00000050: c50d ce3c e690 9b3c c3e8 d0bc ac8c b6be
00000060: 7aa8 36bf e07d a53d 14cf 803d 5579 53be
00000070: 1c7d 40bd 0140 b7bb d354 3fbd 52e1 5c3e
00000080: 80e5 77bc e525 1d3e 9635 b7be 5f33 eb3c
00000090: 4a3d afbe 846a 8dbe c067 5b3d 2a17 c6be
000000a0: 8251 6bbe db92 5cbe 81d5 92bd 53dc 9abd
000000b0: 762a 2ebe b04c e23d 0e7a 5ebe aca9 3dbd
000000c0: e5f5 593e 02b2 50bd c4ee e73d e03a fbbb
000000d0: c67e 08be 11e3 c6bd b496 c23b dcca 32be
000000e0: 178d c83d b077 f5bd aaf4 453e 3a7b 303d
000000f0: bbd1 9dbf bdfe d8bd 2b7e dfbc 317c 8fbe
00000100: 1718 ecbe 9c49 5a3e a24b 88bd 4a1f 043e
00000110: d53c ddbd 7e5f 1e3e 05c4 913c c107 0f3e
00000120: d8c7 093e 86f0 18be 2104 60be 9f76 2ebd
00000130: 7880 63be 1ce7 72be 2cc1 39bd a0be 47be
00000140: 7ae8 83bf 8027 57bd dd66 36be d85a e3bc
00000150: 2569 5dbe e8b6 47be 9456 c63d 20e6 8f3f
00000160: 5812 05bf fece 17be cc80 9ebd 109d b2bc
00000170: dee2 1e3e 1e80 253e 849f a53d 9d19 0fbe
00000180: c8b0 d5bc 9619 adbd e4d3 42bd fc38 56be
00000190: 73ad c3bd b2cf 633e c285 00be af9d 2b3e
000001a0: 67a1 123d fd5b eebd 40c2 0fbe da15 28be
000001b0: 2f35 8e3d abb6 c1bd 29a7 31be dcb4 8e3d
000001c0: e81c 06be 7680 033e b140 5cbe e729 cbbd
000001d0: 6688 d43c 70d3 3abe d5f0 21be 1f6e 093d
000001e0: f17c 903f 73e9 6dbc 8df5 cfbe 854f 97be
000001f0: 3927 e7be bc34 813d 38dd 753d bbe9 76bf
00000200: c0e7 40be 2e70 053c 1f27 fbbd 3d63 b33d
00000210: 7e74 263e 0858 3bbe a3b1 62be 39db 5dbc
00000220: ac11 f1bd 631c ddbe 5ac5 45be 930f d2bd
00000230: 163c f8bd dc00 23bd 8aca 14be d8a7 f9bc
00000240: 0864 1c3e 3833 063e 8228 0b3e 02a8 4bbe
00000250: 88e7 503d 80fb f63c 4df4 0fbe 30ff 083c
00000260: 71ed 33be 8088 823a f08a 55bc 0066 5b3a
00000270: f4ef 903d 17ce 5abe ac49 3b3e 4aa9 01be
00000280: 7a21 cdbd 08c4 4cbe f094 fcbd 9000 c73c
00000290: deb2 153e b770 48be 8626 5d3e aa10 773d
000002a0: e7fe 9e3d a811 d13d 2491 60be 9e84 22be
000002b0: 59eb 50be 2d2a 3abe 4007 20be 00aa a6ba
000002c0: 846b 10bd 38ca 11be ea5b afbd 2283 8abd
000002d0: 1e6a 6d3f c9da 073e d6d5 943c 8893 16bb
000002e0: c2c9 9fba d84e 133e aa03 4a3e 1594 8fbf
000002f0: f78f 493f 20ab 143e 587a b8bd caa9 e6bd
00000300: 163d 62be adb8 06be ba08 49be 65e6 3a3e
00000310: e9c9 22be 76f8 21be 66fd 523e 07ef 32bd

seq.2.bias f4 [10]
-1.1211113 -0.59811217 -0.26365542 -0.4618811 -3.979836 -0.097983696 -0.07748799 -0.08452673
-0.2968452 1.8452883
00000000: 9380 8fbf e11d 19bf d8fd 86be ae7b ecbe
00000010: a2b5 7ec0 adab c8bd 06b2 9ebd 5a1c adbd
00000020: 18fc 97be 6832 ec3f

seq.4.weight f4 [3, 10]
0.051814698 0.2675109 -0.0011133419 0.12156955 -0.13985626 -0.06711727 -0.4877055 0.2948796
-0.03310603 0.48653495 -0.40549394 0.4959871 -0.058130976 -0.046631195 0.25426117 0.1369832
-0.57745296 -0.20216313 -0.0089133065 0.7829734 -0.04158557 0.044813022 0.30048668 -0.0063354624
-0.0363253 0.16942027 -0.07508019 0.18233842 0.23441693 0.025385937
00000000: a63b 543d 30f7 883e 8eed 91ba 75f9 f83d
00000010: 7b36 0fbe c774 89bd 89b4 f9be 75fa 963e
00000020: 309a 07bd 1c1b f93e e79c cfbe 05f2 fd3e
00000030: bf1a 6ebd 5a00 3fbd 852e 823e 5345 0c3e
00000040: f5d3 13bf da03 4fbe 1e09 12bc f270 483f
00000050: a155 2abd dc8d 373d 64d9 993e b699 cfbb
00000060: d6c9 14bd 827c 2d3e a5c3 99bd ecb6 3a3e
00000070: fe0a 703e 2bf6 cf3c

seq.4.bias f4 [3]
2.0954306 3.265004 1.787981
00000000: 891b 0640 d3f5 5040 90dc e43f
